…
[5m[31mWARNING[0m [32m[08/06 18:06:30 nl.search_spaces.core.graph]: [0mUpdate function could not be veryfied. Be cautious with the setting of `private_edge_data` in `update_edges()`
[5m[31mWARNING[0m [32m[08/06 18:06:30 nl.search_spaces.core.graph]: [0mUpdate function could not be veryfied. Be cautious with the setting of `private_edge_data` in `update_edges()`
[32m[08/06 18:06:30 nl.optimizers.oneshot.darts.optimizer]: [0mParsed graph:
Graph normal_cell:
 Graph(
  (normal_cell-edge(1,3)): MixedOp(
    (primitive-0): Identity()
    (primitive-1): Zero (stride=1)
    (primitive-2): MaxPool(
      (maxpool): Sequential(
        (0): MaxPool2d(kernel_size=3, stride=1, padding=1, dilation=1, ceil_mode=False)
        (1): BatchNorm2d(16, eps=1e-05, momentum=0.1, affine=False, track_running_stats=True)
      )
    )
    (primitive-3): AvgPool(
      (avgpool): Sequential(
        (0): AvgPool2d(kernel_size=3, stride=1, padding=1)
        (1): BatchNorm2d(16, eps=1e-05, momentum=0.1, affine=False, track_running_stats=True)
      )
    )
    (primitive-4): SepConv(
      (op): Sequential(
        (0): ReLU()
        (1): Conv2d(16, 16, kernel_size=(3, 3), stride=(1, 1), padding=(1, 1), groups=16, bias=False)
        (2): Conv2d(16, 16, kernel_size=(1, 1), stride=(1, 1), bias=False)
        (3): BatchNorm2d(16, eps=1e-05, momentum=0.1, affine=False, track_running_stats=True)
        (4): ReLU()
        (5): Conv2d(16, 16, kernel_size=(3, 3), stride=(1, 1), padding=(1, 1), groups=16, bias=False)
        (6): Conv2d(16, 16, kernel_size=(1, 1), stride=(1, 1), bias=False)
        (7): BatchNorm2d(16, eps=1e-05, momentum=0.1, affine=False, track_running_stats=True)
      )
    )
    (primitive-5): SepConv(
      (op): Sequential(
        (0): ReLU()
        (1): Conv2d(16, 16, kernel_size=(5, 5), stride=(1, 1), padding=(2, 2), groups=16, bias=False)
        (2): Conv2d(16, 16, kernel_size=(1, 1), stride=(1, 1), bias=False)
        (3): BatchNorm2d(16, eps=1e-05, momentum=0.1, affine=False, track_running_stats=True)
        (4): ReLU()
        (5): Conv2d(16, 16, kernel_size=(5, 5), stride=(1, 1), padding=(2, 2), groups=16, bias=False)
        (6): Conv2d(16, 16, kernel_size=(1, 1), stride=(1, 1), bias=False)
        (7): BatchNorm2d(16, eps=1e-05, momentum=0.1, affine=False, track_running_stats=True)
      )
    )
    (primitive-6): DilConv(
      (op): Sequential(
        (0): ReLU()
        (1): Conv2d(16, 16, kernel_size=(3, 3), stride=(1, 1), padding=(2, 2), dilation=(2, 2), groups=16, bias=False)
        (2): Conv2d(16, 16, kernel_size=(1, 1), stride=(1, 1), bias=False)
        (3): BatchNorm2d(16, eps=1e-05, momentum=0.1, affine=False, track_running_stats=True)
      )
    )
    (primitive-7): DilConv(
      (op): Sequential(
        (0): ReLU()
        (1): Conv2d(16, 16, kernel_size=(5, 5), stride=(1, 1), padding=(4, 4), dilation=(2, 2), groups=16, bias=False)
        (2): Conv2d(16, 16, kernel_size=(1, 1), stride=(1, 1), bias=False)
        (3): BatchNorm2d(16, eps=1e-05, momentum=0.1, affine=False, track_running_stats=True)
      )
    )
  )
  (normal_cell-edge(1,4)): MixedOp(
    (primitive-0): Identity()
    (primitive-1): Zero (stride=1)
    (primitive-2): MaxPool(
      (maxpool): Sequential(
        (0): MaxPool2d(kernel_size=3, stride=1, padding=1, dilation=1, ceil_mode=False)
        (1): BatchNorm2d(16, eps=1e-05, momentum=0.1, affine=False, track_running_stats=True)
      )
    )
    (primitive-3): AvgPool(
      (avgpool): Sequential(
        (0): AvgPool2d(kernel_size=3, stride=1, padding=1)
        (1): BatchNorm2d(16, eps=1e-05, momentum=0.1, affine=False, track_running_stats=True)
      )
    )
    (primitive-4): SepConv(
      (op): Sequential(
        (0): ReLU()
        (1): Conv2d(16, 16, kernel_size=(3, 3), stride=(1, 1), padding=(1, 1), groups=16, bias=False)
        (2): Conv2d(16, 16, kernel_size=(1, 1), stride=(1, 1), bias=False)
        (3): BatchNorm2d(16, eps=1e-05, momentum=0.1, affine=False, track_running_stats=True)
        (4): ReLU()
        (5): Conv2d(16, 16, kernel_size=(3, 3), stride=(1, 1), padding=(1, 1), groups=16, bias=False)
        (6): Conv2d(16, 16, kernel_size=(1, 1), stride=(1, 1), bias=False)
        (7): BatchNorm2d(16, eps=1e-05, momentum=0.1, affine=False, track_running_stats=True)
      )
    )
    (primitive-5): SepConv(
      (op): Sequential(
        (0): ReLU()
        (1): Conv2d(16, 16, kernel_size=(5, 5), stride=(1, 1), padding=(2, 2), groups=16, bias=False)
        (2): Conv2d(16, 16, kernel_size=(1, 1), stride=(1, 1), bias=False)
        (3): BatchNorm2d(16, eps=1e-05, momentum=0.1, affine=False, track_running_stats=True)
        (4): ReLU()
        (5): Conv2d(16, 16, kernel_size=(5, 5), stride=(1, 1), padding=(2, 2), groups=16, bias=False)
        (6): Conv2d(16, 16, kernel_size=(1, 1), stride=(1, 1), bias=False)
        (7): BatchNorm2d(16, eps=1e-05, momentum=0.1, affine=False, track_running_stats=True)
      )
    )
    (primitive-6): DilConv(
      (op): Sequential(
        (0): ReLU()
        (1): Conv2d(16, 16, kernel_size=(3, 3), stride=(1, 1), padding=(2, 2), dilation=(2, 2), groups=16, bias=False)
        (2): Conv2d(16, 16, kernel_size=(1, 1), stride=(1, 1), bias=False)
        (3): BatchNorm2d(16, eps=1e-05, momentum=0.1, affine=False, track_running_stats=True)
      )
    )
    (primitive-7): DilConv(
      (op): Sequential(
        (0): ReLU()
        (1): Conv2d(16, 16, kernel_size=(5, 5), stride=(1, 1), padding=(4, 4), dilation=(2, 2), groups=16, bias=False)
        (2): Conv2d(16, 16, kernel_size=(1, 1), stride=(1, 1), bias=False)
        (3): BatchNorm2d(16, eps=1e-05, momentum=0.1, affine=False, track_running_stats=True)
      )
    )
  )
  (normal_cell-edge(1,5)): MixedOp(
    (primitive-0): Identity()
    (primitive-1): Zero (stride=1)
    (primitive-2): MaxPool(
      (maxpool): Sequential(
        (0): MaxPool2d(kernel_size=3, stride=1, padding=1, dilation=1, ceil_mode=False)
        (1): BatchNorm2d(16, eps=1e-05, momentum=0.1, affine=False, track_running_stats=True)
      )
    )
    (primitive-3): AvgPool(
      (avgpool): Sequential(
        (0): AvgPool2d(kernel_size=3, stride=1, padding=1)
        (1): BatchNorm2d(16, eps=1e-05, momentum=0.1, affine=False, track_running_stats=True)
      )
    )
    (primitive-4): SepConv(
      (op): Sequential(
        (0): ReLU()
        (1): Conv2d(16, 16, kernel_size=(3, 3), stride=(1, 1), padding=(1, 1), groups=16, bias=False)
        (2): Conv2d(16, 16, kernel_size=(1, 1), stride=(1, 1), bias=False)
        (3): BatchNorm2d(16, eps=1e-05, momentum=0.1, affine=False, track_running_stats=True)
        (4): ReLU()
        (5): Conv2d(16, 16, kernel_size=(3, 3), stride=(1, 1), padding=(1, 1), groups=16, bias=False)
        (6): Conv2d(16, 16, kernel_size=(1, 1), stride=(1, 1), bias=False)
        (7): BatchNorm2d(16, eps=1e-05, momentum=0.1, affine=False, track_running_stats=True)
      )
    )
    (primitive-5): SepConv(
      (op): Sequential(
        (0): ReLU()
        (1): Conv2d(16, 16, kernel_size=(5, 5), stride=(1, 1), padding=(2, 2), groups=16, bias=False)
        (2): Conv2d(16, 16, kernel_size=(1, 1), stride=(1, 1), bias=False)
        (3): BatchNorm2d(16, eps=1e-05, momentum=0.1, affine=False, track_running_stats=True)
        (4): ReLU()
        (5): Conv2d(16, 16, kernel_size=(5, 5), stride=(1, 1), padding=(2, 2), groups=16, bias=False)
        (6): Conv2d(16, 16, kernel_size=(1, 1), stride=(1, 1), bias=False)
        (7): BatchNorm2d(16, eps=1e-05, momentum=0.1, affine=False, track_running_stats=True)
      )
    )
    (primitive-6): DilConv(
      (op): Sequential(
        (0): ReLU()
        (1): Conv2d(16, 16, kernel_size=(3, 3), stride=(1, 1), padding=(2, 2), dilation=(2, 2), groups=16, bias=False)
        (2): Conv2d(16, 16, kernel_size=(1, 1), stride=(1, 1), bias=False)
        (3): BatchNorm2d(16, eps=1e-05, momentum=0.1, affine=False, track_running_stats=True)
      )
    )
    (primitive-7): DilConv(
      (op): Sequential(
        (0): ReLU()
        (1): Conv2d(16, 16, kernel_size=(5, 5), stride=(1, 1), padding=(4, 4), dilation=(2, 2), groups=16, bias=False)
        (2): Conv2d(16, 16, kernel_size=(1, 1), stride=(1, 1), bias=False)
        (3): BatchNorm2d(16, eps=1e-05, momentum=0.1, affine=False, track_running_stats=True)
      )
    )
  )
  (normal_cell-edge(1,6)): MixedOp(
    (primitive-0): Identity()
    (primitive-1): Zero (stride=1)
    (primitive-2): MaxPool(
      (maxpool): Sequential(
        (0): MaxPool2d(kernel_size=3, stride=1, padding=1, dilation=1, ceil_mode=False)
        (1): BatchNorm2d(16, eps=1e-05, momentum=0.1, affine=False, track_running_stats=True)
      )
    )
    (primitive-3): AvgPool(
      (avgpool): Sequential(
        (0): AvgPool2d(kernel_size=3, stride=1, padding=1)
        (1): BatchNorm2d(16, eps=1e-05, momentum=0.1, affine=False, track_running_stats=True)
      )
    )
    (primitive-4): SepConv(
      (op): Sequential(
        (0): ReLU()
        (1): Conv2d(16, 16, kernel_size=(3, 3), stride=(1, 1), padding=(1, 1), groups=16, bias=False)
        (2): Conv2d(16, 16, kernel_size=(1, 1), stride=(1, 1), bias=False)
        (3): BatchNorm2d(16, eps=1e-05, momentum=0.1, affine=False, track_running_stats=True)
        (4): ReLU()
        (5): Conv2d(16, 16, kernel_size=(3, 3), stride=(1, 1), padding=(1, 1), groups=16, bias=False)
        (6): Conv2d(16, 16, kernel_size=(1, 1), stride=(1, 1), bias=False)
        (7): BatchNorm2d(16, eps=1e-05, momentum=0.1, affine=False, track_running_stats=True)
      )
    )
    (primitive-5): SepConv(
      (op): Sequential(
        (0): ReLU()
        (1): Conv2d(16, 16, kernel_size=(5, 5), stride=(1, 1), padding=(2, 2), groups=16, bias=False)
        (2): Conv2d(16, 16, kernel_size=(1, 1), stride=(1, 1), bias=False)
        (3): BatchNorm2d(16, eps=1e-05, momentum=0.1, affine=False, track_running_stats=True)
        (4): ReLU()
        (5): Conv2d(16, 16, kernel_size=(5, 5), stride=(1, 1), padding=(2, 2), groups=16, bias=False)
        (6): Conv2d(16, 16, kernel_size=(1, 1), stride=(1, 1), bias=False)
        (7): BatchNorm2d(16, eps=1e-05, momentum=0.1, affine=False, track_running_stats=True)
      )
    )
    (primitive-6): DilConv(
      (op): Sequential(
        (0): ReLU()
        (1): Conv2d(16, 16, kernel_size=(3, 3), stride=(1, 1), padding=(2, 2), dilation=(2, 2), groups=16, bias=False)
        (2): Conv2d(16, 16, kernel_size=(1, 1), stride=(1, 1), bias=False)
        (3): BatchNorm2d(16, eps=1e-05, momentum=0.1, affine=False, track_running_stats=True)
      )
    )
    (primitive-7): DilConv(
      (op): Sequential(
        (0): ReLU()
        (1): Conv2d(16, 16, kernel_size=(5, 5), stride=(1, 1), padding=(4, 4), dilation=(2, 2), groups=16, bias=False)
        (2): Conv2d(16, 16, kernel_size=(1, 1), stride=(1, 1), bias=False)
        (3): BatchNorm2d(16, eps=1e-05, momentum=0.1, affine=False, track_running_stats=True)
      )
    )
  )
  (normal_cell-edge(2,3)): MixedOp(
    (primitive-0): Identity()
    (primitive-1): Zero (stride=1)
    (primitive-2): MaxPool(
      (maxpool): Sequential(
        (0): MaxPool2d(kernel_size=3, stride=1, padding=1, dilation=1, ceil_mode=False)
        (1): BatchNorm2d(16, eps=1e-05, momentum=0.1, affine=False, track_running_stats=True)
      )
    )
    (primitive-3): AvgPool(
      (avgpool): Sequential(
        (0): AvgPool2d(kernel_size=3, stride=1, padding=1)
        (1): BatchNorm2d(16, eps=1e-05, momentum=0.1, affine=False, track_running_stats=True)
      )
    )
    (primitive-4): SepConv(
      (op): Sequential(
        (0): ReLU()
        (1): Conv2d(16, 16, kernel_size=(3, 3), stride=(1, 1), padding=(1, 1), groups=16, bias=False)
        (2): Conv2d(16, 16, kernel_size=(1, 1), stride=(1, 1), bias=False)
        (3): BatchNorm2d(16, eps=1e-05, momentum=0.1, affine=False, track_running_stats=True)
        (4): ReLU()
        (5): Conv2d(16, 16, kernel_size=(3, 3), stride=(1, 1), padding=(1, 1), groups=16, bias=False)
        (6): Conv2d(16, 16, kernel_size=(1, 1), stride=(1, 1), bias=False)
        (7): BatchNorm2d(16, eps=1e-05, momentum=0.1, affine=False, track_running_stats=True)
      )
    )
    (primitive-5): SepConv(
      (op): Sequential(
        (0): ReLU()
        (1): Conv2d(16, 16, kernel_size=(5, 5), stride=(1, 1), padding=(2, 2), groups=16, bias=False)
        (2): Conv2d(16, 16, kernel_size=(1, 1), stride=(1, 1), bias=False)
        (3): BatchNorm2d(16, eps=1e-05, momentum=0.1, affine=False, track_running_stats=True)
        (4): ReLU()
        (5): Conv2d(16, 16, kernel_size=(5, 5), stride=(1, 1), padding=(2, 2), groups=16, bias=False)
        (6): Conv2d(16, 16, kernel_size=(1, 1), stride=(1, 1), bias=False)
        (7): BatchNorm2d(16, eps=1e-05, momentum=0.1, affine=False, track_running_stats=True)
      )
    )
    (primitive-6): DilConv(
      (op): Sequential(
        (0): ReLU()
        (1): Conv2d(16, 16, kernel_size=(3, 3), stride=(1, 1), padding=(2, 2), dilation=(2, 2), groups=16, bias=False)
        (2): Conv2d(16, 16, kernel_size=(1, 1), stride=(1, 1), bias=False)
        (3): BatchNorm2d(16, eps=1e-05, momentum=0.1, affine=False, track_running_stats=True)
      )
    )
    (primitive-7): DilConv(
      (op): Sequential(
        (0): ReLU()
        (1): Conv2d(16, 16, kernel_size=(5, 5), stride=(1, 1), padding=(4, 4), dilation=(2, 2), groups=16, bias=False)
        (2): Conv2d(16, 16, kernel_size=(1, 1), stride=(1, 1), bias=False)
        (3): BatchNorm2d(16, eps=1e-05, momentum=0.1, affine=False, track_running_stats=True)
      )
    )
  )
  (normal_cell-edge(2,4)): MixedOp(
    (primitive-0): Identity()
    (primitive-1): Zero (stride=1)
    (primitive-2): MaxPool(
      (maxpool): Sequential(
        (0): MaxPool2d(kernel_size=3, stride=1, padding=1, dilation=1, ceil_mode=False)
        (1): BatchNorm2d(16, eps=1e-05, momentum=0.1, affine=False, track_running_stats=True)
      )
    )
    (primitive-3): AvgPool(
      (avgpool): Sequential(
        (0): AvgPool2d(kernel_size=3, stride=1, padding=1)
        (1): BatchNorm2d(16, eps=1e-05, momentum=0.1, affine=False, track_running_stats=True)
      )
    )
    (primitive-4): SepConv(
      (op): Sequential(
        (0): ReLU()
        (1): Conv2d(16, 16, kernel_size=(3, 3), stride=(1, 1), padding=(1, 1), groups=16, bias=False)
        (2): Conv2d(16, 16, kernel_size=(1, 1), stride=(1, 1), bias=False)
        (3): BatchNorm2d(16, eps=1e-05, momentum=0.1, affine=False, track_running_stats=True)
        (4): ReLU()
        (5): Conv2d(16, 16, kernel_size=(3, 3), stride=(1, 1), padding=(1, 1), groups=16, bias=False)
        (6): Conv2d(16, 16, kernel_size=(1, 1), stride=(1, 1), bias=False)
        (7): BatchNorm2d(16, eps=1e-05, momentum=0.1, affine=False, track_running_stats=True)
      )
    )
    (primitive-5): SepConv(
      (op): Sequential(
        (0): ReLU()
        (1): Conv2d(16, 16, kernel_size=(5, 5), stride=(1, 1), padding=(2, 2), groups=16, bias=False)
        (2): Conv2d(16, 16, kernel_size=(1, 1), stride=(1, 1), bias=False)
        (3): BatchNorm2d(16, eps=1e-05, momentum=0.1, affine=False, track_running_stats=True)
        (4): ReLU()
        (5): Conv2d(16, 16, kernel_size=(5, 5), stride=(1, 1), padding=(2, 2), groups=16, bias=False)
        (6): Conv2d(16, 16, kernel_size=(1, 1), stride=(1, 1), bias=False)
        (7): BatchNorm2d(16, eps=1e-05, momentum=0.1, affine=False, track_running_stats=True)
      )
    )
    (primitive-6): DilConv(
      (op): Sequential(
        (0): ReLU()
        (1): Conv2d(16, 16, kernel_size=(3, 3), stride=(1, 1), padding=(2, 2), dilation=(2, 2), groups=16, bias=False)
        (2): Conv2d(16, 16, kernel_size=(1, 1), stride=(1, 1), bias=False)
        (3): BatchNorm2d(16, eps=1e-05, momentum=0.1, affine=False, track_running_stats=True)
      )
    )
    (primitive-7): DilConv(
      (op): Sequential(
        (0): ReLU()
        (1): Conv2d(16, 16, kernel_size=(5, 5), stride=(1, 1), padding=(4, 4), dilation=(2, 2), groups=16, bias=False)
        (2): Conv2d(16, 16, kernel_size=(1, 1), stride=(1, 1), bias=False)
        (3): BatchNorm2d(16, eps=1e-05, momentum=0.1, affine=False, track_running_stats=True)
      )
    )
  )
  (normal_cell-edge(2,5)): MixedOp(
    (primitive-0): Identity()
    (primitive-1): Zero (stride=1)
    (primitive-2): MaxPool(
      (maxpool): Sequential(
        (0): MaxPool2d(kernel_size=3, stride=1, padding=1, dilation=1, ceil_mode=False)
        (1): BatchNorm2d(16, eps=1e-05, momentum=0.1, affine=False, track_running_stats=True)
      )
    )
    (primitive-3): AvgPool(
      (avgpool): Sequential(
        (0): AvgPool2d(kernel_size=3, stride=1, padding=1)
        (1): BatchNorm2d(16, eps=1e-05, momentum=0.1, affine=False, track_running_stats=True)
      )
    )
    (primitive-4): SepConv(
      (op): Sequential(
        (0): ReLU()
        (1): Conv2d(16, 16, kernel_size=(3, 3), stride=(1, 1), padding=(1, 1), groups=16, bias=False)
        (2): Conv2d(16, 16, kernel_size=(1, 1), stride=(1, 1), bias=False)
        (3): BatchNorm2d(16, eps=1e-05, momentum=0.1, affine=False, track_running_stats=True)
        (4): ReLU()
        (5): Conv2d(16, 16, kernel_size=(3, 3), stride=(1, 1), padding=(1, 1), groups=16, bias=False)
        (6): Conv2d(16, 16, kernel_size=(1, 1), stride=(1, 1), bias=False)
        (7): BatchNorm2d(16, eps=1e-05, momentum=0.1, affine=False, track_running_stats=True)
      )
    )
    (primitive-5): SepConv(
      (op): Sequential(
        (0): ReLU()
        (1): Conv2d(16, 16, kernel_size=(5, 5), stride=(1, 1), padding=(2, 2), groups=16, bias=False)
        (2): Conv2d(16, 16, kernel_size=(1, 1), stride=(1, 1), bias=False)
        (3): BatchNorm2d(16, eps=1e-05, momentum=0.1, affine=False, track_running_stats=True)
        (4): ReLU()
        (5): Conv2d(16, 16, kernel_size=(5, 5), stride=(1, 1), padding=(2, 2), groups=16, bias=False)
        (6): Conv2d(16, 16, kernel_size=(1, 1), stride=(1, 1), bias=False)
        (7): BatchNorm2d(16, eps=1e-05, momentum=0.1, affine=False, track_running_stats=True)
      )
    )
    (primitive-6): DilConv(
      (op): Sequential(
        (0): ReLU()
        (1): Conv2d(16, 16, kernel_size=(3, 3), stride=(1, 1), padding=(2, 2), dilation=(2, 2), groups=16, bias=False)
        (2): Conv2d(16, 16, kernel_size=(1, 1), stride=(1, 1), bias=False)
        (3): BatchNorm2d(16, eps=1e-05, momentum=0.1, affine=False, track_running_stats=True)
      )
    )
    (primitive-7): DilConv(
      (op): Sequential(
        (0): ReLU()
        (1): Conv2d(16, 16, kernel_size=(5, 5), stride=(1, 1), padding=(4, 4), dilation=(2, 2), groups=16, bias=False)
        (2): Conv2d(16, 16, kernel_size=(1, 1), stride=(1, 1), bias=False)
        (3): BatchNorm2d(16, eps=1e-05, momentum=0.1, affine=False, track_running_stats=True)
      )
    )
  )
  (normal_cell-edge(2,6)): MixedOp(
    (primitive-0): Identity()
    (primitive-1): Zero (stride=1)
    (primitive-2): MaxPool(
      (maxpool): Sequential(
        (0): MaxPool2d(kernel_size=3, stride=1, padding=1, dilation=1, ceil_mode=False)
        (1): BatchNorm2d(16, eps=1e-05, momentum=0.1, affine=False, track_running_stats=True)
      )
    )
    (primitive-3): AvgPool(
      (avgpool): Sequential(
        (0): AvgPool2d(kernel_size=3, stride=1, padding=1)
        (1): BatchNorm2d(16, eps=1e-05, momentum=0.1, affine=False, track_running_stats=True)
      )
    )
    (primitive-4): SepConv(
      (op): Sequential(
        (0): ReLU()
        (1): Conv2d(16, 16, kernel_size=(3, 3), stride=(1, 1), padding=(1, 1), groups=16, bias=False)
        (2): Conv2d(16, 16, kernel_size=(1, 1), stride=(1, 1), bias=False)
        (3): BatchNorm2d(16, eps=1e-05, momentum=0.1, affine=False, track_running_stats=True)
        (4): ReLU()
        (5): Conv2d(16, 16, kernel_size=(3, 3), stride=(1, 1), padding=(1, 1), groups=16, bias=False)
        (6): Conv2d(16, 16, kernel_size=(1, 1), stride=(1, 1), bias=False)
        (7): BatchNorm2d(16, eps=1e-05, momentum=0.1, affine=False, track_running_stats=True)
      )
    )
    (primitive-5): SepConv(
      (op): Sequential(
        (0): ReLU()
        (1): Conv2d(16, 16, kernel_size=(5, 5), stride=(1, 1), padding=(2, 2), groups=16, bias=False)
        (2): Conv2d(16, 16, kernel_size=(1, 1), stride=(1, 1), bias=False)
        (3): BatchNorm2d(16, eps=1e-05, momentum=0.1, affine=False, track_running_stats=True)
        (4): ReLU()
        (5): Conv2d(16, 16, kernel_size=(5, 5), stride=(1, 1), padding=(2, 2), groups=16, bias=False)
        (6): Conv2d(16, 16, kernel_size=(1, 1), stride=(1, 1), bias=False)
        (7): BatchNorm2d(16, eps=1e-05, momentum=0.1, affine=False, track_running_stats=True)
      )
    )
    (primitive-6): DilConv(
      (op): Sequential(
        (0): ReLU()
        (1): Conv2d(16, 16, kernel_size=(3, 3), stride=(1, 1), padding=(2, 2), dilation=(2, 2), groups=16, bias=False)
        (2): Conv2d(16, 16, kernel_size=(1, 1), stride=(1, 1), bias=False)
        (3): BatchNorm2d(16, eps=1e-05, momentum=0.1, affine=False, track_running_stats=True)
      )
    )
    (primitive-7): DilConv(
      (op): Sequential(
        (0): ReLU()
        (1): Conv2d(16, 16, kernel_size=(5, 5), stride=(1, 1), padding=(4, 4), dilation=(2, 2), groups=16, bias=False)
        (2): Conv2d(16, 16, kernel_size=(1, 1), stride=(1, 1), bias=False)
        (3): BatchNorm2d(16, eps=1e-05, momentum=0.1, affine=False, track_running_stats=True)
      )
    )
  )
  (normal_cell-edge(3,4)): MixedOp(
    (primitive-0): Identity()
    (primitive-1): Zero (stride=1)
    (primitive-2): MaxPool(
      (maxpool): Sequential(
        (0): MaxPool2d(kernel_size=3, stride=1, padding=1, dilation=1, ceil_mode=False)
        (1): BatchNorm2d(16, eps=1e-05, momentum=0.1, affine=False, track_running_stats=True)
      )
    )
    (primitive-3): AvgPool(
      (avgpool): Sequential(
        (0): AvgPool2d(kernel_size=3, stride=1, padding=1)
        (1): BatchNorm2d(16, eps=1e-05, momentum=0.1, affine=False, track_running_stats=True)
      )
    )
    (primitive-4): SepConv(
      (op): Sequential(
        (0): ReLU()
        (1): Conv2d(16, 16, kernel_size=(3, 3), stride=(1, 1), padding=(1, 1), groups=16, bias=False)
        (2): Conv2d(16, 16, kernel_size=(1, 1), stride=(1, 1), bias=False)
        (3): BatchNorm2d(16, eps=1e-05, momentum=0.1, affine=False, track_running_stats=True)
        (4): ReLU()
        (5): Conv2d(16, 16, kernel_size=(3, 3), stride=(1, 1), padding=(1, 1), groups=16, bias=False)
        (6): Conv2d(16, 16, kernel_size=(1, 1), stride=(1, 1), bias=False)
        (7): BatchNorm2d(16, eps=1e-05, momentum=0.1, affine=False, track_running_stats=True)
      )
    )
    (primitive-5): SepConv(
      (op): Sequential(
        (0): ReLU()
        (1): Conv2d(16, 16, kernel_size=(5, 5), stride=(1, 1), padding=(2, 2), groups=16, bias=False)
        (2): Conv2d(16, 16, kernel_size=(1, 1), stride=(1, 1), bias=False)
        (3): BatchNorm2d(16, eps=1e-05, momentum=0.1, affine=False, track_running_stats=True)
        (4): ReLU()
        (5): Conv2d(16, 16, kernel_size=(5, 5), stride=(1, 1), padding=(2, 2), groups=16, bias=False)
        (6): Conv2d(16, 16, kernel_size=(1, 1), stride=(1, 1), bias=False)
        (7): BatchNorm2d(16, eps=1e-05, momentum=0.1, affine=False, track_running_stats=True)
      )
    )
    (primitive-6): DilConv(
      (op): Sequential(
        (0): ReLU()
        (1): Conv2d(16, 16, kernel_size=(3, 3), stride=(1, 1), padding=(2, 2), dilation=(2, 2), groups=16, bias=False)
        (2): Conv2d(16, 16, kernel_size=(1, 1), stride=(1, 1), bias=False)
        (3): BatchNorm2d(16, eps=1e-05, momentum=0.1, affine=False, track_running_stats=True)
      )
    )
    (primitive-7): DilConv(
      (op): Sequential(
        (0): ReLU()
        (1): Conv2d(16, 16, kernel_size=(5, 5), stride=(1, 1), padding=(4, 4), dilation=(2, 2), groups=16, bias=False)
        (2): Conv2d(16, 16, kernel_size=(1, 1), stride=(1, 1), bias=False)
        (3): BatchNorm2d(16, eps=1e-05, momentum=0.1, affine=False, track_running_stats=True)
      )
    )
  )
  (normal_cell-edge(3,5)): MixedOp(
    (primitive-0): Identity()
    (primitive-1): Zero (stride=1)
    (primitive-2): MaxPool(
      (maxpool): Sequential(
        (0): MaxPool2d(kernel_size=3, stride=1, padding=1, dilation=1, ceil_mode=False)
        (1): BatchNorm2d(16, eps=1e-05, momentum=0.1, affine=False, track_running_stats=True)
      )
    )
    (primitive-3): AvgPool(
      (avgpool): Sequential(
        (0): AvgPool2d(kernel_size=3, stride=1, padding=1)
        (1): BatchNorm2d(16, eps=1e-05, momentum=0.1, affine=False, track_running_stats=True)
      )
    )
    (primitive-4): SepConv(
      (op): Sequential(
        (0): ReLU()
        (1): Conv2d(16, 16, kernel_size=(3, 3), stride=(1, 1), padding=(1, 1), groups=16, bias=False)
        (2): Conv2d(16, 16, kernel_size=(1, 1), stride=(1, 1), bias=False)
        (3): BatchNorm2d(16, eps=1e-05, momentum=0.1, affine=False, track_running_stats=True)
        (4): ReLU()
        (5): Conv2d(16, 16, kernel_size=(3, 3), stride=(1, 1), padding=(1, 1), groups=16, bias=False)
        (6): Conv2d(16, 16, kernel_size=(1, 1), stride=(1, 1), bias=False)
        (7): BatchNorm2d(16, eps=1e-05, momentum=0.1, affine=False, track_running_stats=True)
      )
    )
    (primitive-5): SepConv(
      (op): Sequential(
        (0): ReLU()
        (1): Conv2d(16, 16, kernel_size=(5, 5), stride=(1, 1), padding=(2, 2), groups=16, bias=False)
        (2): Conv2d(16, 16, kernel_size=(1, 1), stride=(1, 1), bias=False)
        (3): BatchNorm2d(16, eps=1e-05, momentum=0.1, affine=False, track_running_stats=True)
        (4): ReLU()
        (5): Conv2d(16, 16, kernel_size=(5, 5), stride=(1, 1), padding=(2, 2), groups=16, bias=False)
        (6): Conv2d(16, 16, kernel_size=(1, 1), stride=(1, 1), bias=False)
        (7): BatchNorm2d(16, eps=1e-05, momentum=0.1, affine=False, track_running_stats=True)
      )
    )
    (primitive-6): DilConv(
      (op): Sequential(
        (0): ReLU()
        (1): Conv2d(16, 16, kernel_size=(3, 3), stride=(1, 1), padding=(2, 2), dilation=(2, 2), groups=16, bias=False)
        (2): Conv2d(16, 16, kernel_size=(1, 1), stride=(1, 1), bias=False)
        (3): BatchNorm2d(16, eps=1e-05, momentum=0.1, affine=False, track_running_stats=True)
      )
    )
    (primitive-7): DilConv(
      (op): Sequential(
        (0): ReLU()
        (1): Conv2d(16, 16, kernel_size=(5, 5), stride=(1, 1), padding=(4, 4), dilation=(2, 2), groups=16, bias=False)
        (2): Conv2d(16, 16, kernel_size=(1, 1), stride=(1, 1), bias=False)
        (3): BatchNorm2d(16, eps=1e-05, momentum=0.1, affine=False, track_running_stats=True)
      )
    )
  )
  (normal_cell-edge(3,6)): MixedOp(
    (primitive-0): Identity()
    (primitive-1): Zero (stride=1)
    (primitive-2): MaxPool(
      (maxpool): Sequential(
        (0): MaxPool2d(kernel_size=3, stride=1, padding=1, dilation=1, ceil_mode=False)
        (1): BatchNorm2d(16, eps=1e-05, momentum=0.1, affine=False, track_running_stats=True)
      )
    )
    (primitive-3): AvgPool(
      (avgpool): Sequential(
        (0): AvgPool2d(kernel_size=3, stride=1, padding=1)
        (1): BatchNorm2d(16, eps=1e-05, momentum=0.1, affine=False, track_running_stats=True)
      )
    )
    (primitive-4): SepConv(
      (op): Sequential(
        (0): ReLU()
        (1): Conv2d(16, 16, kernel_size=(3, 3), stride=(1, 1), padding=(1, 1), groups=16, bias=False)
        (2): Conv2d(16, 16, kernel_size=(1, 1), stride=(1, 1), bias=False)
        (3): BatchNorm2d(16, eps=1e-05, momentum=0.1, affine=False, track_running_stats=True)
        (4): ReLU()
        (5): Conv2d(16, 16, kernel_size=(3, 3), stride=(1, 1), padding=(1, 1), groups=16, bias=False)
        (6): Conv2d(16, 16, kernel_size=(1, 1), stride=(1, 1), bias=False)
        (7): BatchNorm2d(16, eps=1e-05, momentum=0.1, affine=False, track_running_stats=True)
      )
    )
    (primitive-5): SepConv(
      (op): Sequential(
        (0): ReLU()
        (1): Conv2d(16, 16, kernel_size=(5, 5), stride=(1, 1), padding=(2, 2), groups=16, bias=False)
        (2): Conv2d(16, 16, kernel_size=(1, 1), stride=(1, 1), bias=False)
        (3): BatchNorm2d(16, eps=1e-05, momentum=0.1, affine=False, track_running_stats=True)
        (4): ReLU()
        (5): Conv2d(16, 16, kernel_size=(5, 5), stride=(1, 1), padding=(2, 2), groups=16, bias=False)
        (6): Conv2d(16, 16, kernel_size=(1, 1), stride=(1, 1), bias=False)
        (7): BatchNorm2d(16, eps=1e-05, momentum=0.1, affine=False, track_running_stats=True)
      )
    )
    (primitive-6): DilConv(
      (op): Sequential(
        (0): ReLU()
        (1): Conv2d(16, 16, kernel_size=(3, 3), stride=(1, 1), padding=(2, 2), dilation=(2, 2), groups=16, bias=False)
        (2): Conv2d(16, 16, kernel_size=(1, 1), stride=(1, 1), bias=False)
        (3): BatchNorm2d(16, eps=1e-05, momentum=0.1, affine=False, track_running_stats=True)
      )
    )
    (primitive-7): DilConv(
      (op): Sequential(
        (0): ReLU()
        (1): Conv2d(16, 16, kernel_size=(5, 5), stride=(1, 1), padding=(4, 4), dilation=(2, 2), groups=16, bias=False)
        (2): Conv2d(16, 16, kernel_size=(1, 1), stride=(1, 1), bias=False)
        (3): BatchNorm2d(16, eps=1e-05, momentum=0.1, affine=False, track_running_stats=True)
      )
    )
  )
  (normal_cell-edge(3,7)): Identity()
  (normal_cell-edge(4,5)): MixedOp(
    (primitive-0): Identity()
    (primitive-1): Zero (stride=1)
    (primitive-2): MaxPool(
      (maxpool): Sequential(
        (0): MaxPool2d(kernel_size=3, stride=1, padding=1, dilation=1, ceil_mode=False)
        (1): BatchNorm2d(16, eps=1e-05, momentum=0.1, affine=False, track_running_stats=True)
      )
    )
    (primitive-3): AvgPool(
      (avgpool): Sequential(
        (0): AvgPool2d(kernel_size=3, stride=1, padding=1)
        (1): BatchNorm2d(16, eps=1e-05, momentum=0.1, affine=False, track_running_stats=True)
      )
    )
    (primitive-4): SepConv(
      (op): Sequential(
        (0): ReLU()
        (1): Conv2d(16, 16, kernel_size=(3, 3), stride=(1, 1), padding=(1, 1), groups=16, bias=False)
        (2): Conv2d(16, 16, kernel_size=(1, 1), stride=(1, 1), bias=False)
        (3): BatchNorm2d(16, eps=1e-05, momentum=0.1, affine=False, track_running_stats=True)
        (4): ReLU()
        (5): Conv2d(16, 16, kernel_size=(3, 3), stride=(1, 1), padding=(1, 1), groups=16, bias=False)
        (6): Conv2d(16, 16, kernel_size=(1, 1), stride=(1, 1), bias=False)
        (7): BatchNorm2d(16, eps=1e-05, momentum=0.1, affine=False, track_running_stats=True)
      )
    )
    (primitive-5): SepConv(
      (op): Sequential(
        (0): ReLU()
        (1): Conv2d(16, 16, kernel_size=(5, 5), stride=(1, 1), padding=(2, 2), groups=16, bias=False)
        (2): Conv2d(16, 16, kernel_size=(1, 1), stride=(1, 1), bias=False)
        (3): BatchNorm2d(16, eps=1e-05, momentum=0.1, affine=False, track_running_stats=True)
        (4): ReLU()
        (5): Conv2d(16, 16, kernel_size=(5, 5), stride=(1, 1), padding=(2, 2), groups=16, bias=False)
        (6): Conv2d(16, 16, kernel_size=(1, 1), stride=(1, 1), bias=False)
        (7): BatchNorm2d(16, eps=1e-05, momentum=0.1, affine=False, track_running_stats=True)
      )
    )
    (primitive-6): DilConv(
      (op): Sequential(
        (0): ReLU()
        (1): Conv2d(16, 16, kernel_size=(3, 3), stride=(1, 1), padding=(2, 2), dilation=(2, 2), groups=16, bias=False)
        (2): Conv2d(16, 16, kernel_size=(1, 1), stride=(1, 1), bias=False)
        (3): BatchNorm2d(16, eps=1e-05, momentum=0.1, affine=False, track_running_stats=True)
      )
    )
    (primitive-7): DilConv(
      (op): Sequential(
        (0): ReLU()
        (1): Conv2d(16, 16, kernel_size=(5, 5), stride=(1, 1), padding=(4, 4), dilation=(2, 2), groups=16, bias=False)
        (2): Conv2d(16, 16, kernel_size=(1, 1), stride=(1, 1), bias=False)
        (3): BatchNorm2d(16, eps=1e-05, momentum=0.1, affine=False, track_running_stats=True)
      )
    )
  )
  (normal_cell-edge(4,6)): MixedOp(
    (primitive-0): Identity()
    (primitive-1): Zero (stride=1)
    (primitive-2): MaxPool(
      (maxpool): Sequential(
        (0): MaxPool2d(kernel_size=3, stride=1, padding=1, dilation=1, ceil_mode=False)
        (1): BatchNorm2d(16, eps=1e-05, momentum=0.1, affine=False, track_running_stats=True)
      )
    )
    (primitive-3): AvgPool(
      (avgpool): Sequential(
        (0): AvgPool2d(kernel_size=3, stride=1, padding=1)
        (1): BatchNorm2d(16, eps=1e-05, momentum=0.1, affine=False, track_running_stats=True)
      )
    )
    (primitive-4): SepConv(
      (op): Sequential(
        (0): ReLU()
        (1): Conv2d(16, 16, kernel_size=(3, 3), stride=(1, 1), padding=(1, 1), groups=16, bias=False)
        (2): Conv2d(16, 16, kernel_size=(1, 1), stride=(1, 1), bias=False)
        (3): BatchNorm2d(16, eps=1e-05, momentum=0.1, affine=False, track_running_stats=True)
        (4): ReLU()
        (5): Conv2d(16, 16, kernel_size=(3, 3), stride=(1, 1), padding=(1, 1), groups=16, bias=False)
        (6): Conv2d(16, 16, kernel_size=(1, 1), stride=(1, 1), bias=False)
        (7): BatchNorm2d(16, eps=1e-05, momentum=0.1, affine=False, track_running_stats=True)
      )
    )
    (primitive-5): SepConv(
      (op): Sequential(
        (0): ReLU()
        (1): Conv2d(16, 16, kernel_size=(5, 5), stride=(1, 1), padding=(2, 2), groups=16, bias=False)
        (2): Conv2d(16, 16, kernel_size=(1, 1), stride=(1, 1), bias=False)
        (3): BatchNorm2d(16, eps=1e-05, momentum=0.1, affine=False, track_running_stats=True)
        (4): ReLU()
        (5): Conv2d(16, 16, kernel_size=(5, 5), stride=(1, 1), padding=(2, 2), groups=16, bias=False)
        (6): Conv2d(16, 16, kernel_size=(1, 1), stride=(1, 1), bias=False)
        (7): BatchNorm2d(16, eps=1e-05, momentum=0.1, affine=False, track_running_stats=True)
      )
    )
    (primitive-6): DilConv(
      (op): Sequential(
        (0): ReLU()
        (1): Conv2d(16, 16, kernel_size=(3, 3), stride=(1, 1), padding=(2, 2), dilation=(2, 2), groups=16, bias=False)
        (2): Conv2d(16, 16, kernel_size=(1, 1), stride=(1, 1), bias=False)
        (3): BatchNorm2d(16, eps=1e-05, momentum=0.1, affine=False, track_running_stats=True)
      )
    )
    (primitive-7): DilConv(
      (op): Sequential(
        (0): ReLU()
        (1): Conv2d(16, 16, kernel_size=(5, 5), stride=(1, 1), padding=(4, 4), dilation=(2, 2), groups=16, bias=False)
        (2): Conv2d(16, 16, kernel_size=(1, 1), stride=(1, 1), bias=False)
        (3): BatchNorm2d(16, eps=1e-05, momentum=0.1, affine=False, track_running_stats=True)
      )
    )
  )
  (normal_cell-edge(4,7)): Identity()
  (normal_cell-edge(5,6)): MixedOp(
    (primitive-0): Identity()
    (primitive-1): Zero (stride=1)
    (primitive-2): MaxPool(
      (maxpool): Sequential(
        (0): MaxPool2d(kernel_size=3, stride=1, padding=1, dilation=1, ceil_mode=False)
        (1): BatchNorm2d(16, eps=1e-05, momentum=0.1, affine=False, track_running_stats=True)
      )
    )
    (primitive-3): AvgPool(
      (avgpool): Sequential(
        (0): AvgPool2d(kernel_size=3, stride=1, padding=1)
        (1): BatchNorm2d(16, eps=1e-05, momentum=0.1, affine=False, track_running_stats=True)
      )
    )
    (primitive-4): SepConv(
      (op): Sequential(
        (0): ReLU()
        (1): Conv2d(16, 16, kernel_size=(3, 3), stride=(1, 1), padding=(1, 1), groups=16, bias=False)
        (2): Conv2d(16, 16, kernel_size=(1, 1), stride=(1, 1), bias=False)
        (3): BatchNorm2d(16, eps=1e-05, momentum=0.1, affine=False, track_running_stats=True)
        (4): ReLU()
        (5): Conv2d(16, 16, kernel_size=(3, 3), stride=(1, 1), padding=(1, 1), groups=16, bias=False)
        (6): Conv2d(16, 16, kernel_size=(1, 1), stride=(1, 1), bias=False)
        (7): BatchNorm2d(16, eps=1e-05, momentum=0.1, affine=False, track_running_stats=True)
      )
    )
    (primitive-5): SepConv(
      (op): Sequential(
        (0): ReLU()
        (1): Conv2d(16, 16, kernel_size=(5, 5), stride=(1, 1), padding=(2, 2), groups=16, bias=False)
        (2): Conv2d(16, 16, kernel_size=(1, 1), stride=(1, 1), bias=False)
        (3): BatchNorm2d(16, eps=1e-05, momentum=0.1, affine=False, track_running_stats=True)
        (4): ReLU()
        (5): Conv2d(16, 16, kernel_size=(5, 5), stride=(1, 1), padding=(2, 2), groups=16, bias=False)
        (6): Conv2d(16, 16, kernel_size=(1, 1), stride=(1, 1), bias=False)
        (7): BatchNorm2d(16, eps=1e-05, momentum=0.1, affine=False, track_running_stats=True)
      )
    )
    (primitive-6): DilConv(
      (op): Sequential(
        (0): ReLU()
        (1): Conv2d(16, 16, kernel_size=(3, 3), stride=(1, 1), padding=(2, 2), dilation=(2, 2), groups=16, bias=False)
        (2): Conv2d(16, 16, kernel_size=(1, 1), stride=(1, 1), bias=False)
        (3): BatchNorm2d(16, eps=1e-05, momentum=0.1, affine=False, track_running_stats=True)
      )
    )
    (primitive-7): DilConv(
      (op): Sequential(
        (0): ReLU()
        (1): Conv2d(16, 16, kernel_size=(5, 5), stride=(1, 1), padding=(4, 4), dilation=(2, 2), groups=16, bias=False)
        (2): Conv2d(16, 16, kernel_size=(1, 1), stride=(1, 1), bias=False)
        (3): BatchNorm2d(16, eps=1e-05, momentum=0.1, affine=False, track_running_stats=True)
      )
    )
  )
  (normal_cell-edge(5,7)): Identity()
  (normal_cell-edge(6,7)): Identity()
)
==========
Graph reduction_cell:
 Graph(
  (reduction_cell-edge(1,3)): MixedOp(
    (primitive-0): FactorizedReduce(
      (relu): ReLU()
      (conv_1): Conv2d(32, 16, kernel_size=(1, 1), stride=(2, 2), bias=False)
      (conv_2): Conv2d(32, 16, kernel_size=(1, 1), stride=(2, 2), bias=False)
      (bn): BatchNorm2d(32, eps=1e-05, momentum=0.1, affine=False, track_running_stats=True)
    )
    (primitive-1): Zero (stride=2)
    (primitive-2): MaxPool(
      (maxpool): Sequential(
        (0): MaxPool2d(kernel_size=3, stride=2, padding=1, dilation=1, ceil_mode=False)
        (1): BatchNorm2d(32, eps=1e-05, momentum=0.1, affine=False, track_running_stats=True)
      )
    )
    (primitive-3): AvgPool(
      (avgpool): Sequential(
        (0): AvgPool2d(kernel_size=3, stride=2, padding=1)
        (1): BatchNorm2d(32, eps=1e-05, momentum=0.1, affine=False, track_running_stats=True)
      )
    )
    (primitive-4): SepConv(
      (op): Sequential(
        (0): ReLU()
        (1): Conv2d(32, 32, kernel_size=(3, 3), stride=(2, 2), padding=(1, 1), groups=32, bias=False)
        (2): Conv2d(32, 32, kernel_size=(1, 1), stride=(1, 1), bias=False)
        (3): BatchNorm2d(32, eps=1e-05, momentum=0.1, affine=False, track_running_stats=True)
        (4): ReLU()
        (5): Conv2d(32, 32, kernel_size=(3, 3), stride=(1, 1), padding=(1, 1), groups=32, bias=False)
        (6): Conv2d(32, 32, kernel_size=(1, 1), stride=(1, 1), bias=False)
        (7): BatchNorm2d(32, eps=1e-05, momentum=0.1, affine=False, track_running_stats=True)
      )
    )
    (primitive-5): SepConv(
      (op): Sequential(
        (0): ReLU()
        (1): Conv2d(32, 32, kernel_size=(5, 5), stride=(2, 2), padding=(2, 2), groups=32, bias=False)
        (2): Conv2d(32, 32, kernel_size=(1, 1), stride=(1, 1), bias=False)
        (3): BatchNorm2d(32, eps=1e-05, momentum=0.1, affine=False, track_running_stats=True)
        (4): ReLU()
        (5): Conv2d(32, 32, kernel_size=(5, 5), stride=(1, 1), padding=(2, 2), groups=32, bias=False)
        (6): Conv2d(32, 32, kernel_size=(1, 1), stride=(1, 1), bias=False)
        (7): BatchNorm2d(32, eps=1e-05, momentum=0.1, affine=False, track_running_stats=True)
      )
    )
    (primitive-6): DilConv(
      (op): Sequential(
        (0): ReLU()
        (1): Conv2d(32, 32, kernel_size=(3, 3), stride=(2, 2), padding=(2, 2), dilation=(2, 2), groups=32, bias=False)
        (2): Conv2d(32, 32, kernel_size=(1, 1), stride=(1, 1), bias=False)
        (3): BatchNorm2d(32, eps=1e-05, momentum=0.1, affine=False, track_running_stats=True)
      )
    )
    (primitive-7): DilConv(
      (op): Sequential(
        (0): ReLU()
        (1): Conv2d(32, 32, kernel_size=(5, 5), stride=(2, 2), padding=(4, 4), dilation=(2, 2), groups=32, bias=False)
        (2): Conv2d(32, 32, kernel_size=(1, 1), stride=(1, 1), bias=False)
        (3): BatchNorm2d(32, eps=1e-05, momentum=0.1, affine=False, track_running_stats=True)
      )
    )
  )
  (reduction_cell-edge(1,4)): MixedOp(
    (primitive-0): FactorizedReduce(
      (relu): ReLU()
      (conv_1): Conv2d(32, 16, kernel_size=(1, 1), stride=(2, 2), bias=False)
      (conv_2): Conv2d(32, 16, kernel_size=(1, 1), stride=(2, 2), bias=False)
      (bn): BatchNorm2d(32, eps=1e-05, momentum=0.1, affine=False, track_running_stats=True)
    )
    (primitive-1): Zero (stride=2)
    (primitive-2): MaxPool(
      (maxpool): Sequential(
        (0): MaxPool2d(kernel_size=3, stride=2, padding=1, dilation=1, ceil_mode=False)
        (1): BatchNorm2d(32, eps=1e-05, momentum=0.1, affine=False, track_running_stats=True)
      )
    )
    (primitive-3): AvgPool(
      (avgpool): Sequential(
        (0): AvgPool2d(kernel_size=3, stride=2, padding=1)
        (1): BatchNorm2d(32, eps=1e-05, momentum=0.1, affine=False, track_running_stats=True)
      )
    )
    (primitive-4): SepConv(
      (op): Sequential(
        (0): ReLU()
        (1): Conv2d(32, 32, kernel_size=(3, 3), stride=(2, 2), padding=(1, 1), groups=32, bias=False)
        (2): Conv2d(32, 32, kernel_size=(1, 1), stride=(1, 1), bias=False)
        (3): BatchNorm2d(32, eps=1e-05, momentum=0.1, affine=False, track_running_stats=True)
        (4): ReLU()
        (5): Conv2d(32, 32, kernel_size=(3, 3), stride=(1, 1), padding=(1, 1), groups=32, bias=False)
        (6): Conv2d(32, 32, kernel_size=(1, 1), stride=(1, 1), bias=False)
        (7): BatchNorm2d(32, eps=1e-05, momentum=0.1, affine=False, track_running_stats=True)
      )
    )
    (primitive-5): SepConv(
      (op): Sequential(
        (0): ReLU()
        (1): Conv2d(32, 32, kernel_size=(5, 5), stride=(2, 2), padding=(2, 2), groups=32, bias=False)
        (2): Conv2d(32, 32, kernel_size=(1, 1), stride=(1, 1), bias=False)
        (3): BatchNorm2d(32, eps=1e-05, momentum=0.1, affine=False, track_running_stats=True)
        (4): ReLU()
        (5): Conv2d(32, 32, kernel_size=(5, 5), stride=(1, 1), padding=(2, 2), groups=32, bias=False)
        (6): Conv2d(32, 32, kernel_size=(1, 1), stride=(1, 1), bias=False)
        (7): BatchNorm2d(32, eps=1e-05, momentum=0.1, affine=False, track_running_stats=True)
      )
    )
    (primitive-6): DilConv(
      (op): Sequential(
        (0): ReLU()
        (1): Conv2d(32, 32, kernel_size=(3, 3), stride=(2, 2), padding=(2, 2), dilation=(2, 2), groups=32, bias=False)
        (2): Conv2d(32, 32, kernel_size=(1, 1), stride=(1, 1), bias=False)
        (3): BatchNorm2d(32, eps=1e-05, momentum=0.1, affine=False, track_running_stats=True)
      )
    )
    (primitive-7): DilConv(
      (op): Sequential(
        (0): ReLU()
        (1): Conv2d(32, 32, kernel_size=(5, 5), stride=(2, 2), padding=(4, 4), dilation=(2, 2), groups=32, bias=False)
        (2): Conv2d(32, 32, kernel_size=(1, 1), stride=(1, 1), bias=False)
        (3): BatchNorm2d(32, eps=1e-05, momentum=0.1, affine=False, track_running_stats=True)
      )
    )
  )
  (reduction_cell-edge(1,5)): MixedOp(
    (primitive-0): FactorizedReduce(
      (relu): ReLU()
      (conv_1): Conv2d(32, 16, kernel_size=(1, 1), stride=(2, 2), bias=False)
      (conv_2): Conv2d(32, 16, kernel_size=(1, 1), stride=(2, 2), bias=False)
      (bn): BatchNorm2d(32, eps=1e-05, momentum=0.1, affine=False, track_running_stats=True)
    )
    (primitive-1): Zero (stride=2)
    (primitive-2): MaxPool(
      (maxpool): Sequential(
        (0): MaxPool2d(kernel_size=3, stride=2, padding=1, dilation=1, ceil_mode=False)
        (1): BatchNorm2d(32, eps=1e-05, momentum=0.1, affine=False, track_running_stats=True)
      )
    )
    (primitive-3): AvgPool(
      (avgpool): Sequential(
        (0): AvgPool2d(kernel_size=3, stride=2, padding=1)
        (1): BatchNorm2d(32, eps=1e-05, momentum=0.1, affine=False, track_running_stats=True)
      )
    )
    (primitive-4): SepConv(
      (op): Sequential(
        (0): ReLU()
        (1): Conv2d(32, 32, kernel_size=(3, 3), stride=(2, 2), padding=(1, 1), groups=32, bias=False)
        (2): Conv2d(32, 32, kernel_size=(1, 1), stride=(1, 1), bias=False)
        (3): BatchNorm2d(32, eps=1e-05, momentum=0.1, affine=False, track_running_stats=True)
        (4): ReLU()
        (5): Conv2d(32, 32, kernel_size=(3, 3), stride=(1, 1), padding=(1, 1), groups=32, bias=False)
        (6): Conv2d(32, 32, kernel_size=(1, 1), stride=(1, 1), bias=False)
        (7): BatchNorm2d(32, eps=1e-05, momentum=0.1, affine=False, track_running_stats=True)
      )
    )
    (primitive-5): SepConv(
      (op): Sequential(
        (0): ReLU()
        (1): Conv2d(32, 32, kernel_size=(5, 5), stride=(2, 2), padding=(2, 2), groups=32, bias=False)
        (2): Conv2d(32, 32, kernel_size=(1, 1), stride=(1, 1), bias=False)
        (3): BatchNorm2d(32, eps=1e-05, momentum=0.1, affine=False, track_running_stats=True)
        (4): ReLU()
        (5): Conv2d(32, 32, kernel_size=(5, 5), stride=(1, 1), padding=(2, 2), groups=32, bias=False)
        (6): Conv2d(32, 32, kernel_size=(1, 1), stride=(1, 1), bias=False)
        (7): BatchNorm2d(32, eps=1e-05, momentum=0.1, affine=False, track_running_stats=True)
      )
    )
    (primitive-6): DilConv(
      (op): Sequential(
        (0): ReLU()
        (1): Conv2d(32, 32, kernel_size=(3, 3), stride=(2, 2), padding=(2, 2), dilation=(2, 2), groups=32, bias=False)
        (2): Conv2d(32, 32, kernel_size=(1, 1), stride=(1, 1), bias=False)
        (3): BatchNorm2d(32, eps=1e-05, momentum=0.1, affine=False, track_running_stats=True)
      )
    )
    (primitive-7): DilConv(
      (op): Sequential(
        (0): ReLU()
        (1): Conv2d(32, 32, kernel_size=(5, 5), stride=(2, 2), padding=(4, 4), dilation=(2, 2), groups=32, bias=False)
        (2): Conv2d(32, 32, kernel_size=(1, 1), stride=(1, 1), bias=False)
        (3): BatchNorm2d(32, eps=1e-05, momentum=0.1, affine=False, track_running_stats=True)
      )
    )
  )
  (reduction_cell-edge(1,6)): MixedOp(
    (primitive-0): FactorizedReduce(
      (relu): ReLU()
      (conv_1): Conv2d(32, 16, kernel_size=(1, 1), stride=(2, 2), bias=False)
      (conv_2): Conv2d(32, 16, kernel_size=(1, 1), stride=(2, 2), bias=False)
      (bn): BatchNorm2d(32, eps=1e-05, momentum=0.1, affine=False, track_running_stats=True)
    )
    (primitive-1): Zero (stride=2)
    (primitive-2): MaxPool(
      (maxpool): Sequential(
        (0): MaxPool2d(kernel_size=3, stride=2, padding=1, dilation=1, ceil_mode=False)
        (1): BatchNorm2d(32, eps=1e-05, momentum=0.1, affine=False, track_running_stats=True)
      )
    )
    (primitive-3): AvgPool(
      (avgpool): Sequential(
        (0): AvgPool2d(kernel_size=3, stride=2, padding=1)
        (1): BatchNorm2d(32, eps=1e-05, momentum=0.1, affine=False, track_running_stats=True)
      )
    )
    (primitive-4): SepConv(
      (op): Sequential(
        (0): ReLU()
        (1): Conv2d(32, 32, kernel_size=(3, 3), stride=(2, 2), padding=(1, 1), groups=32, bias=False)
        (2): Conv2d(32, 32, kernel_size=(1, 1), stride=(1, 1), bias=False)
        (3): BatchNorm2d(32, eps=1e-05, momentum=0.1, affine=False, track_running_stats=True)
        (4): ReLU()
        (5): Conv2d(32, 32, kernel_size=(3, 3), stride=(1, 1), padding=(1, 1), groups=32, bias=False)
        (6): Conv2d(32, 32, kernel_size=(1, 1), stride=(1, 1), bias=False)
        (7): BatchNorm2d(32, eps=1e-05, momentum=0.1, affine=False, track_running_stats=True)
      )
    )
    (primitive-5): SepConv(
      (op): Sequential(
        (0): ReLU()
        (1): Conv2d(32, 32, kernel_size=(5, 5), stride=(2, 2), padding=(2, 2), groups=32, bias=False)
        (2): Conv2d(32, 32, kernel_size=(1, 1), stride=(1, 1), bias=False)
        (3): BatchNorm2d(32, eps=1e-05, momentum=0.1, affine=False, track_running_stats=True)
        (4): ReLU()
        (5): Conv2d(32, 32, kernel_size=(5, 5), stride=(1, 1), padding=(2, 2), groups=32, bias=False)
        (6): Conv2d(32, 32, kernel_size=(1, 1), stride=(1, 1), bias=False)
        (7): BatchNorm2d(32, eps=1e-05, momentum=0.1, affine=False, track_running_stats=True)
      )
    )
    (primitive-6): DilConv(
      (op): Sequential(
        (0): ReLU()
        (1): Conv2d(32, 32, kernel_size=(3, 3), stride=(2, 2), padding=(2, 2), dilation=(2, 2), groups=32, bias=False)
        (2): Conv2d(32, 32, kernel_size=(1, 1), stride=(1, 1), bias=False)
        (3): BatchNorm2d(32, eps=1e-05, momentum=0.1, affine=False, track_running_stats=True)
      )
    )
    (primitive-7): DilConv(
      (op): Sequential(
        (0): ReLU()
        (1): Conv2d(32, 32, kernel_size=(5, 5), stride=(2, 2), padding=(4, 4), dilation=(2, 2), groups=32, bias=False)
        (2): Conv2d(32, 32, kernel_size=(1, 1), stride=(1, 1), bias=False)
        (3): BatchNorm2d(32, eps=1e-05, momentum=0.1, affine=False, track_running_stats=True)
      )
    )
  )
  (reduction_cell-edge(2,3)): MixedOp(
    (primitive-0): FactorizedReduce(
      (relu): ReLU()
      (conv_1): Conv2d(32, 16, kernel_size=(1, 1), stride=(2, 2), bias=False)
      (conv_2): Conv2d(32, 16, kernel_size=(1, 1), stride=(2, 2), bias=False)
      (bn): BatchNorm2d(32, eps=1e-05, momentum=0.1, affine=False, track_running_stats=True)
    )
    (primitive-1): Zero (stride=2)
    (primitive-2): MaxPool(
      (maxpool): Sequential(
        (0): MaxPool2d(kernel_size=3, stride=2, padding=1, dilation=1, ceil_mode=False)
        (1): BatchNorm2d(32, eps=1e-05, momentum=0.1, affine=False, track_running_stats=True)
      )
    )
    (primitive-3): AvgPool(
      (avgpool): Sequential(
        (0): AvgPool2d(kernel_size=3, stride=2, padding=1)
        (1): BatchNorm2d(32, eps=1e-05, momentum=0.1, affine=False, track_running_stats=True)
      )
    )
    (primitive-4): SepConv(
      (op): Sequential(
        (0): ReLU()
        (1): Conv2d(32, 32, kernel_size=(3, 3), stride=(2, 2), padding=(1, 1), groups=32, bias=False)
        (2): Conv2d(32, 32, kernel_size=(1, 1), stride=(1, 1), bias=False)
        (3): BatchNorm2d(32, eps=1e-05, momentum=0.1, affine=False, track_running_stats=True)
        (4): ReLU()
        (5): Conv2d(32, 32, kernel_size=(3, 3), stride=(1, 1), padding=(1, 1), groups=32, bias=False)
        (6): Conv2d(32, 32, kernel_size=(1, 1), stride=(1, 1), bias=False)
        (7): BatchNorm2d(32, eps=1e-05, momentum=0.1, affine=False, track_running_stats=True)
      )
    )
    (primitive-5): SepConv(
      (op): Sequential(
        (0): ReLU()
        (1): Conv2d(32, 32, kernel_size=(5, 5), stride=(2, 2), padding=(2, 2), groups=32, bias=False)
        (2): Conv2d(32, 32, kernel_size=(1, 1), stride=(1, 1), bias=False)
        (3): BatchNorm2d(32, eps=1e-05, momentum=0.1, affine=False, track_running_stats=True)
        (4): ReLU()
        (5): Conv2d(32, 32, kernel_size=(5, 5), stride=(1, 1), padding=(2, 2), groups=32, bias=False)
        (6): Conv2d(32, 32, kernel_size=(1, 1), stride=(1, 1), bias=False)
        (7): BatchNorm2d(32, eps=1e-05, momentum=0.1, affine=False, track_running_stats=True)
      )
    )
    (primitive-6): DilConv(
      (op): Sequential(
        (0): ReLU()
        (1): Conv2d(32, 32, kernel_size=(3, 3), stride=(2, 2), padding=(2, 2), dilation=(2, 2), groups=32, bias=False)
        (2): Conv2d(32, 32, kernel_size=(1, 1), stride=(1, 1), bias=False)
        (3): BatchNorm2d(32, eps=1e-05, momentum=0.1, affine=False, track_running_stats=True)
      )
    )
    (primitive-7): DilConv(
      (op): Sequential(
        (0): ReLU()
        (1): Conv2d(32, 32, kernel_size=(5, 5), stride=(2, 2), padding=(4, 4), dilation=(2, 2), groups=32, bias=False)
        (2): Conv2d(32, 32, kernel_size=(1, 1), stride=(1, 1), bias=False)
        (3): BatchNorm2d(32, eps=1e-05, momentum=0.1, affine=False, track_running_stats=True)
      )
    )
  )
  (reduction_cell-edge(2,4)): MixedOp(
    (primitive-0): FactorizedReduce(
      (relu): ReLU()
      (conv_1): Conv2d(32, 16, kernel_size=(1, 1), stride=(2, 2), bias=False)
      (conv_2): Conv2d(32, 16, kernel_size=(1, 1), stride=(2, 2), bias=False)
      (bn): BatchNorm2d(32, eps=1e-05, momentum=0.1, affine=False, track_running_stats=True)
    )
    (primitive-1): Zero (stride=2)
    (primitive-2): MaxPool(
      (maxpool): Sequential(
        (0): MaxPool2d(kernel_size=3, stride=2, padding=1, dilation=1, ceil_mode=False)
        (1): BatchNorm2d(32, eps=1e-05, momentum=0.1, affine=False, track_running_stats=True)
      )
    )
    (primitive-3): AvgPool(
      (avgpool): Sequential(
        (0): AvgPool2d(kernel_size=3, stride=2, padding=1)
        (1): BatchNorm2d(32, eps=1e-05, momentum=0.1, affine=False, track_running_stats=True)
      )
    )
    (primitive-4): SepConv(
      (op): Sequential(
        (0): ReLU()
        (1): Conv2d(32, 32, kernel_size=(3, 3), stride=(2, 2), padding=(1, 1), groups=32, bias=False)
        (2): Conv2d(32, 32, kernel_size=(1, 1), stride=(1, 1), bias=False)
        (3): BatchNorm2d(32, eps=1e-05, momentum=0.1, affine=False, track_running_stats=True)
        (4): ReLU()
        (5): Conv2d(32, 32, kernel_size=(3, 3), stride=(1, 1), padding=(1, 1), groups=32, bias=False)
        (6): Conv2d(32, 32, kernel_size=(1, 1), stride=(1, 1), bias=False)
        (7): BatchNorm2d(32, eps=1e-05, momentum=0.1, affine=False, track_running_stats=True)
      )
    )
    (primitive-5): SepConv(
      (op): Sequential(
        (0): ReLU()
        (1): Conv2d(32, 32, kernel_size=(5, 5), stride=(2, 2), padding=(2, 2), groups=32, bias=False)
        (2): Conv2d(32, 32, kernel_size=(1, 1), stride=(1, 1), bias=False)
        (3): BatchNorm2d(32, eps=1e-05, momentum=0.1, affine=False, track_running_stats=True)
        (4): ReLU()
        (5): Conv2d(32, 32, kernel_size=(5, 5), stride=(1, 1), padding=(2, 2), groups=32, bias=False)
        (6): Conv2d(32, 32, kernel_size=(1, 1), stride=(1, 1), bias=False)
        (7): BatchNorm2d(32, eps=1e-05, momentum=0.1, affine=False, track_running_stats=True)
      )
    )
    (primitive-6): DilConv(
      (op): Sequential(
        (0): ReLU()
        (1): Conv2d(32, 32, kernel_size=(3, 3), stride=(2, 2), padding=(2, 2), dilation=(2, 2), groups=32, bias=False)
        (2): Conv2d(32, 32, kernel_size=(1, 1), stride=(1, 1), bias=False)
        (3): BatchNorm2d(32, eps=1e-05, momentum=0.1, affine=False, track_running_stats=True)
      )
    )
    (primitive-7): DilConv(
      (op): Sequential(
        (0): ReLU()
        (1): Conv2d(32, 32, kernel_size=(5, 5), stride=(2, 2), padding=(4, 4), dilation=(2, 2), groups=32, bias=False)
        (2): Conv2d(32, 32, kernel_size=(1, 1), stride=(1, 1), bias=False)
        (3): BatchNorm2d(32, eps=1e-05, momentum=0.1, affine=False, track_running_stats=True)
      )
    )
  )
  (reduction_cell-edge(2,5)): MixedOp(
    (primitive-0): FactorizedReduce(
      (relu): ReLU()
      (conv_1): Conv2d(32, 16, kernel_size=(1, 1), stride=(2, 2), bias=False)
      (conv_2): Conv2d(32, 16, kernel_size=(1, 1), stride=(2, 2), bias=False)
      (bn): BatchNorm2d(32, eps=1e-05, momentum=0.1, affine=False, track_running_stats=True)
    )
    (primitive-1): Zero (stride=2)
    (primitive-2): MaxPool(
      (maxpool): Sequential(
        (0): MaxPool2d(kernel_size=3, stride=2, padding=1, dilation=1, ceil_mode=False)
        (1): BatchNorm2d(32, eps=1e-05, momentum=0.1, affine=False, track_running_stats=True)
      )
    )
    (primitive-3): AvgPool(
      (avgpool): Sequential(
        (0): AvgPool2d(kernel_size=3, stride=2, padding=1)
        (1): BatchNorm2d(32, eps=1e-05, momentum=0.1, affine=False, track_running_stats=True)
      )
    )
    (primitive-4): SepConv(
      (op): Sequential(
        (0): ReLU()
        (1): Conv2d(32, 32, kernel_size=(3, 3), stride=(2, 2), padding=(1, 1), groups=32, bias=False)
        (2): Conv2d(32, 32, kernel_size=(1, 1), stride=(1, 1), bias=False)
        (3): BatchNorm2d(32, eps=1e-05, momentum=0.1, affine=False, track_running_stats=True)
        (4): ReLU()
        (5): Conv2d(32, 32, kernel_size=(3, 3), stride=(1, 1), padding=(1, 1), groups=32, bias=False)
        (6): Conv2d(32, 32, kernel_size=(1, 1), stride=(1, 1), bias=False)
        (7): BatchNorm2d(32, eps=1e-05, momentum=0.1, affine=False, track_running_stats=True)
      )
    )
    (primitive-5): SepConv(
      (op): Sequential(
        (0): ReLU()
        (1): Conv2d(32, 32, kernel_size=(5, 5), stride=(2, 2), padding=(2, 2), groups=32, bias=False)
        (2): Conv2d(32, 32, kernel_size=(1, 1), stride=(1, 1), bias=False)
        (3): BatchNorm2d(32, eps=1e-05, momentum=0.1, affine=False, track_running_stats=True)
        (4): ReLU()
        (5): Conv2d(32, 32, kernel_size=(5, 5), stride=(1, 1), padding=(2, 2), groups=32, bias=False)
        (6): Conv2d(32, 32, kernel_size=(1, 1), stride=(1, 1), bias=False)
        (7): BatchNorm2d(32, eps=1e-05, momentum=0.1, affine=False, track_running_stats=True)
      )
    )
    (primitive-6): DilConv(
      (op): Sequential(
        (0): ReLU()
        (1): Conv2d(32, 32, kernel_size=(3, 3), stride=(2, 2), padding=(2, 2), dilation=(2, 2), groups=32, bias=False)
        (2): Conv2d(32, 32, kernel_size=(1, 1), stride=(1, 1), bias=False)
        (3): BatchNorm2d(32, eps=1e-05, momentum=0.1, affine=False, track_running_stats=True)
      )
    )
    (primitive-7): DilConv(
      (op): Sequential(
        (0): ReLU()
        (1): Conv2d(32, 32, kernel_size=(5, 5), stride=(2, 2), padding=(4, 4), dilation=(2, 2), groups=32, bias=False)
        (2): Conv2d(32, 32, kernel_size=(1, 1), stride=(1, 1), bias=False)
        (3): BatchNorm2d(32, eps=1e-05, momentum=0.1, affine=False, track_running_stats=True)
      )
    )
  )
  (reduction_cell-edge(2,6)): MixedOp(
    (primitive-0): FactorizedReduce(
      (relu): ReLU()
      (conv_1): Conv2d(32, 16, kernel_size=(1, 1), stride=(2, 2), bias=False)
      (conv_2): Conv2d(32, 16, kernel_size=(1, 1), stride=(2, 2), bias=False)
      (bn): BatchNorm2d(32, eps=1e-05, momentum=0.1, affine=False, track_running_stats=True)
    )
    (primitive-1): Zero (stride=2)
    (primitive-2): MaxPool(
      (maxpool): Sequential(
        (0): MaxPool2d(kernel_size=3, stride=2, padding=1, dilation=1, ceil_mode=False)
        (1): BatchNorm2d(32, eps=1e-05, momentum=0.1, affine=False, track_running_stats=True)
      )
    )
    (primitive-3): AvgPool(
      (avgpool): Sequential(
        (0): AvgPool2d(kernel_size=3, stride=2, padding=1)
        (1): BatchNorm2d(32, eps=1e-05, momentum=0.1, affine=False, track_running_stats=True)
      )
    )
    (primitive-4): SepConv(
      (op): Sequential(
        (0): ReLU()
        (1): Conv2d(32, 32, kernel_size=(3, 3), stride=(2, 2), padding=(1, 1), groups=32, bias=False)
        (2): Conv2d(32, 32, kernel_size=(1, 1), stride=(1, 1), bias=False)
        (3): BatchNorm2d(32, eps=1e-05, momentum=0.1, affine=False, track_running_stats=True)
        (4): ReLU()
        (5): Conv2d(32, 32, kernel_size=(3, 3), stride=(1, 1), padding=(1, 1), groups=32, bias=False)
        (6): Conv2d(32, 32, kernel_size=(1, 1), stride=(1, 1), bias=False)
        (7): BatchNorm2d(32, eps=1e-05, momentum=0.1, affine=False, track_running_stats=True)
      )
    )
    (primitive-5): SepConv(
      (op): Sequential(
        (0): ReLU()
        (1): Conv2d(32, 32, kernel_size=(5, 5), stride=(2, 2), padding=(2, 2), groups=32, bias=False)
        (2): Conv2d(32, 32, kernel_size=(1, 1), stride=(1, 1), bias=False)
        (3): BatchNorm2d(32, eps=1e-05, momentum=0.1, affine=False, track_running_stats=True)
        (4): ReLU()
        (5): Conv2d(32, 32, kernel_size=(5, 5), stride=(1, 1), padding=(2, 2), groups=32, bias=False)
        (6): Conv2d(32, 32, kernel_size=(1, 1), stride=(1, 1), bias=False)
        (7): BatchNorm2d(32, eps=1e-05, momentum=0.1, affine=False, track_running_stats=True)
      )
    )
    (primitive-6): DilConv(
      (op): Sequential(
        (0): ReLU()
        (1): Conv2d(32, 32, kernel_size=(3, 3), stride=(2, 2), padding=(2, 2), dilation=(2, 2), groups=32, bias=False)
        (2): Conv2d(32, 32, kernel_size=(1, 1), stride=(1, 1), bias=False)
        (3): BatchNorm2d(32, eps=1e-05, momentum=0.1, affine=False, track_running_stats=True)
      )
    )
    (primitive-7): DilConv(
      (op): Sequential(
        (0): ReLU()
        (1): Conv2d(32, 32, kernel_size=(5, 5), stride=(2, 2), padding=(4, 4), dilation=(2, 2), groups=32, bias=False)
        (2): Conv2d(32, 32, kernel_size=(1, 1), stride=(1, 1), bias=False)
        (3): BatchNorm2d(32, eps=1e-05, momentum=0.1, affine=False, track_running_stats=True)
      )
    )
  )
  (reduction_cell-edge(3,4)): MixedOp(
    (primitive-0): Identity()
    (primitive-1): Zero (stride=1)
    (primitive-2): MaxPool(
      (maxpool): Sequential(
        (0): MaxPool2d(kernel_size=3, stride=1, padding=1, dilation=1, ceil_mode=False)
        (1): BatchNorm2d(32, eps=1e-05, momentum=0.1, affine=False, track_running_stats=True)
      )
    )
    (primitive-3): AvgPool(
      (avgpool): Sequential(
        (0): AvgPool2d(kernel_size=3, stride=1, padding=1)
        (1): BatchNorm2d(32, eps=1e-05, momentum=0.1, affine=False, track_running_stats=True)
      )
    )
    (primitive-4): SepConv(
      (op): Sequential(
        (0): ReLU()
        (1): Conv2d(32, 32, kernel_size=(3, 3), stride=(1, 1), padding=(1, 1), groups=32, bias=False)
        (2): Conv2d(32, 32, kernel_size=(1, 1), stride=(1, 1), bias=False)
        (3): BatchNorm2d(32, eps=1e-05, momentum=0.1, affine=False, track_running_stats=True)
        (4): ReLU()
        (5): Conv2d(32, 32, kernel_size=(3, 3), stride=(1, 1), padding=(1, 1), groups=32, bias=False)
        (6): Conv2d(32, 32, kernel_size=(1, 1), stride=(1, 1), bias=False)
        (7): BatchNorm2d(32, eps=1e-05, momentum=0.1, affine=False, track_running_stats=True)
      )
    )
    (primitive-5): SepConv(
      (op): Sequential(
        (0): ReLU()
        (1): Conv2d(32, 32, kernel_size=(5, 5), stride=(1, 1), padding=(2, 2), groups=32, bias=False)
        (2): Conv2d(32, 32, kernel_size=(1, 1), stride=(1, 1), bias=False)
        (3): BatchNorm2d(32, eps=1e-05, momentum=0.1, affine=False, track_running_stats=True)
        (4): ReLU()
        (5): Conv2d(32, 32, kernel_size=(5, 5), stride=(1, 1), padding=(2, 2), groups=32, bias=False)
        (6): Conv2d(32, 32, kernel_size=(1, 1), stride=(1, 1), bias=False)
        (7): BatchNorm2d(32, eps=1e-05, momentum=0.1, affine=False, track_running_stats=True)
      )
    )
    (primitive-6): DilConv(
      (op): Sequential(
        (0): ReLU()
        (1): Conv2d(32, 32, kernel_size=(3, 3), stride=(1, 1), padding=(2, 2), dilation=(2, 2), groups=32, bias=False)
        (2): Conv2d(32, 32, kernel_size=(1, 1), stride=(1, 1), bias=False)
        (3): BatchNorm2d(32, eps=1e-05, momentum=0.1, affine=False, track_running_stats=True)
      )
    )
    (primitive-7): DilConv(
      (op): Sequential(
        (0): ReLU()
        (1): Conv2d(32, 32, kernel_size=(5, 5), stride=(1, 1), padding=(4, 4), dilation=(2, 2), groups=32, bias=False)
        (2): Conv2d(32, 32, kernel_size=(1, 1), stride=(1, 1), bias=False)
        (3): BatchNorm2d(32, eps=1e-05, momentum=0.1, affine=False, track_running_stats=True)
      )
    )
  )
  (reduction_cell-edge(3,5)): MixedOp(
    (primitive-0): Identity()
    (primitive-1): Zero (stride=1)
    (primitive-2): MaxPool(
      (maxpool): Sequential(
        (0): MaxPool2d(kernel_size=3, stride=1, padding=1, dilation=1, ceil_mode=False)
        (1): BatchNorm2d(32, eps=1e-05, momentum=0.1, affine=False, track_running_stats=True)
      )
    )
    (primitive-3): AvgPool(
      (avgpool): Sequential(
        (0): AvgPool2d(kernel_size=3, stride=1, padding=1)
        (1): BatchNorm2d(32, eps=1e-05, momentum=0.1, affine=False, track_running_stats=True)
      )
    )
    (primitive-4): SepConv(
      (op): Sequential(
        (0): ReLU()
        (1): Conv2d(32, 32, kernel_size=(3, 3), stride=(1, 1), padding=(1, 1), groups=32, bias=False)
        (2): Conv2d(32, 32, kernel_size=(1, 1), stride=(1, 1), bias=False)
        (3): BatchNorm2d(32, eps=1e-05, momentum=0.1, affine=False, track_running_stats=True)
        (4): ReLU()
        (5): Conv2d(32, 32, kernel_size=(3, 3), stride=(1, 1), padding=(1, 1), groups=32, bias=False)
        (6): Conv2d(32, 32, kernel_size=(1, 1), stride=(1, 1), bias=False)
        (7): BatchNorm2d(32, eps=1e-05, momentum=0.1, affine=False, track_running_stats=True)
      )
    )
    (primitive-5): SepConv(
      (op): Sequential(
        (0): ReLU()
        (1): Conv2d(32, 32, kernel_size=(5, 5), stride=(1, 1), padding=(2, 2), groups=32, bias=False)
        (2): Conv2d(32, 32, kernel_size=(1, 1), stride=(1, 1), bias=False)
        (3): BatchNorm2d(32, eps=1e-05, momentum=0.1, affine=False, track_running_stats=True)
        (4): ReLU()
        (5): Conv2d(32, 32, kernel_size=(5, 5), stride=(1, 1), padding=(2, 2), groups=32, bias=False)
        (6): Conv2d(32, 32, kernel_size=(1, 1), stride=(1, 1), bias=False)
        (7): BatchNorm2d(32, eps=1e-05, momentum=0.1, affine=False, track_running_stats=True)
      )
    )
    (primitive-6): DilConv(
      (op): Sequential(
        (0): ReLU()
        (1): Conv2d(32, 32, kernel_size=(3, 3), stride=(1, 1), padding=(2, 2), dilation=(2, 2), groups=32, bias=False)
        (2): Conv2d(32, 32, kernel_size=(1, 1), stride=(1, 1), bias=False)
        (3): BatchNorm2d(32, eps=1e-05, momentum=0.1, affine=False, track_running_stats=True)
      )
    )
    (primitive-7): DilConv(
      (op): Sequential(
        (0): ReLU()
        (1): Conv2d(32, 32, kernel_size=(5, 5), stride=(1, 1), padding=(4, 4), dilation=(2, 2), groups=32, bias=False)
        (2): Conv2d(32, 32, kernel_size=(1, 1), stride=(1, 1), bias=False)
        (3): BatchNorm2d(32, eps=1e-05, momentum=0.1, affine=False, track_running_stats=True)
      )
    )
  )
  (reduction_cell-edge(3,6)): MixedOp(
    (primitive-0): Identity()
    (primitive-1): Zero (stride=1)
    (primitive-2): MaxPool(
      (maxpool): Sequential(
        (0): MaxPool2d(kernel_size=3, stride=1, padding=1, dilation=1, ceil_mode=False)
        (1): BatchNorm2d(32, eps=1e-05, momentum=0.1, affine=False, track_running_stats=True)
      )
    )
    (primitive-3): AvgPool(
      (avgpool): Sequential(
        (0): AvgPool2d(kernel_size=3, stride=1, padding=1)
        (1): BatchNorm2d(32, eps=1e-05, momentum=0.1, affine=False, track_running_stats=True)
      )
    )
    (primitive-4): SepConv(
      (op): Sequential(
        (0): ReLU()
        (1): Conv2d(32, 32, kernel_size=(3, 3), stride=(1, 1), padding=(1, 1), groups=32, bias=False)
        (2): Conv2d(32, 32, kernel_size=(1, 1), stride=(1, 1), bias=False)
        (3): BatchNorm2d(32, eps=1e-05, momentum=0.1, affine=False, track_running_stats=True)
        (4): ReLU()
        (5): Conv2d(32, 32, kernel_size=(3, 3), stride=(1, 1), padding=(1, 1), groups=32, bias=False)
        (6): Conv2d(32, 32, kernel_size=(1, 1), stride=(1, 1), bias=False)
        (7): BatchNorm2d(32, eps=1e-05, momentum=0.1, affine=False, track_running_stats=True)
      )
    )
    (primitive-5): SepConv(
      (op): Sequential(
        (0): ReLU()
        (1): Conv2d(32, 32, kernel_size=(5, 5), stride=(1, 1), padding=(2, 2), groups=32, bias=False)
        (2): Conv2d(32, 32, kernel_size=(1, 1), stride=(1, 1), bias=False)
        (3): BatchNorm2d(32, eps=1e-05, momentum=0.1, affine=False, track_running_stats=True)
        (4): ReLU()
        (5): Conv2d(32, 32, kernel_size=(5, 5), stride=(1, 1), padding=(2, 2), groups=32, bias=False)
        (6): Conv2d(32, 32, kernel_size=(1, 1), stride=(1, 1), bias=False)
        (7): BatchNorm2d(32, eps=1e-05, momentum=0.1, affine=False, track_running_stats=True)
      )
    )
    (primitive-6): DilConv(
      (op): Sequential(
        (0): ReLU()
        (1): Conv2d(32, 32, kernel_size=(3, 3), stride=(1, 1), padding=(2, 2), dilation=(2, 2), groups=32, bias=False)
        (2): Conv2d(32, 32, kernel_size=(1, 1), stride=(1, 1), bias=False)
        (3): BatchNorm2d(32, eps=1e-05, momentum=0.1, affine=False, track_running_stats=True)
      )
    )
    (primitive-7): DilConv(
      (op): Sequential(
        (0): ReLU()
        (1): Conv2d(32, 32, kernel_size=(5, 5), stride=(1, 1), padding=(4, 4), dilation=(2, 2), groups=32, bias=False)
        (2): Conv2d(32, 32, kernel_size=(1, 1), stride=(1, 1), bias=False)
        (3): BatchNorm2d(32, eps=1e-05, momentum=0.1, affine=False, track_running_stats=True)
      )
    )
  )
  (reduction_cell-edge(3,7)): Identity()
  (reduction_cell-edge(4,5)): MixedOp(
    (primitive-0): Identity()
    (primitive-1): Zero (stride=1)
    (primitive-2): MaxPool(
      (maxpool): Sequential(
        (0): MaxPool2d(kernel_size=3, stride=1, padding=1, dilation=1, ceil_mode=False)
        (1): BatchNorm2d(32, eps=1e-05, momentum=0.1, affine=False, track_running_stats=True)
      )
    )
    (primitive-3): AvgPool(
      (avgpool): Sequential(
        (0): AvgPool2d(kernel_size=3, stride=1, padding=1)
        (1): BatchNorm2d(32, eps=1e-05, momentum=0.1, affine=False, track_running_stats=True)
      )
    )
    (primitive-4): SepConv(
      (op): Sequential(
        (0): ReLU()
        (1): Conv2d(32, 32, kernel_size=(3, 3), stride=(1, 1), padding=(1, 1), groups=32, bias=False)
        (2): Conv2d(32, 32, kernel_size=(1, 1), stride=(1, 1), bias=False)
        (3): BatchNorm2d(32, eps=1e-05, momentum=0.1, affine=False, track_running_stats=True)
        (4): ReLU()
        (5): Conv2d(32, 32, kernel_size=(3, 3), stride=(1, 1), padding=(1, 1), groups=32, bias=False)
        (6): Conv2d(32, 32, kernel_size=(1, 1), stride=(1, 1), bias=False)
        (7): BatchNorm2d(32, eps=1e-05, momentum=0.1, affine=False, track_running_stats=True)
      )
    )
    (primitive-5): SepConv(
      (op): Sequential(
        (0): ReLU()
        (1): Conv2d(32, 32, kernel_size=(5, 5), stride=(1, 1), padding=(2, 2), groups=32, bias=False)
        (2): Conv2d(32, 32, kernel_size=(1, 1), stride=(1, 1), bias=False)
        (3): BatchNorm2d(32, eps=1e-05, momentum=0.1, affine=False, track_running_stats=True)
        (4): ReLU()
        (5): Conv2d(32, 32, kernel_size=(5, 5), stride=(1, 1), padding=(2, 2), groups=32, bias=False)
        (6): Conv2d(32, 32, kernel_size=(1, 1), stride=(1, 1), bias=False)
        (7): BatchNorm2d(32, eps=1e-05, momentum=0.1, affine=False, track_running_stats=True)
      )
    )
    (primitive-6): DilConv(
      (op): Sequential(
        (0): ReLU()
        (1): Conv2d(32, 32, kernel_size=(3, 3), stride=(1, 1), padding=(2, 2), dilation=(2, 2), groups=32, bias=False)
        (2): Conv2d(32, 32, kernel_size=(1, 1), stride=(1, 1), bias=False)
        (3): BatchNorm2d(32, eps=1e-05, momentum=0.1, affine=False, track_running_stats=True)
      )
    )
    (primitive-7): DilConv(
      (op): Sequential(
        (0): ReLU()
        (1): Conv2d(32, 32, kernel_size=(5, 5), stride=(1, 1), padding=(4, 4), dilation=(2, 2), groups=32, bias=False)
        (2): Conv2d(32, 32, kernel_size=(1, 1), stride=(1, 1), bias=False)
        (3): BatchNorm2d(32, eps=1e-05, momentum=0.1, affine=False, track_running_stats=True)
      )
    )
  )
  (reduction_cell-edge(4,6)): MixedOp(
    (primitive-0): Identity()
    (primitive-1): Zero (stride=1)
    (primitive-2): MaxPool(
      (maxpool): Sequential(
        (0): MaxPool2d(kernel_size=3, stride=1, padding=1, dilation=1, ceil_mode=False)
        (1): BatchNorm2d(32, eps=1e-05, momentum=0.1, affine=False, track_running_stats=True)
      )
    )
    (primitive-3): AvgPool(
      (avgpool): Sequential(
        (0): AvgPool2d(kernel_size=3, stride=1, padding=1)
        (1): BatchNorm2d(32, eps=1e-05, momentum=0.1, affine=False, track_running_stats=True)
      )
    )
    (primitive-4): SepConv(
      (op): Sequential(
        (0): ReLU()
        (1): Conv2d(32, 32, kernel_size=(3, 3), stride=(1, 1), padding=(1, 1), groups=32, bias=False)
        (2): Conv2d(32, 32, kernel_size=(1, 1), stride=(1, 1), bias=False)
        (3): BatchNorm2d(32, eps=1e-05, momentum=0.1, affine=False, track_running_stats=True)
        (4): ReLU()
        (5): Conv2d(32, 32, kernel_size=(3, 3), stride=(1, 1), padding=(1, 1), groups=32, bias=False)
        (6): Conv2d(32, 32, kernel_size=(1, 1), stride=(1, 1), bias=False)
        (7): BatchNorm2d(32, eps=1e-05, momentum=0.1, affine=False, track_running_stats=True)
      )
    )
    (primitive-5): SepConv(
      (op): Sequential(
        (0): ReLU()
        (1): Conv2d(32, 32, kernel_size=(5, 5), stride=(1, 1), padding=(2, 2), groups=32, bias=False)
        (2): Conv2d(32, 32, kernel_size=(1, 1), stride=(1, 1), bias=False)
        (3): BatchNorm2d(32, eps=1e-05, momentum=0.1, affine=False, track_running_stats=True)
        (4): ReLU()
        (5): Conv2d(32, 32, kernel_size=(5, 5), stride=(1, 1), padding=(2, 2), groups=32, bias=False)
        (6): Conv2d(32, 32, kernel_size=(1, 1), stride=(1, 1), bias=False)
        (7): BatchNorm2d(32, eps=1e-05, momentum=0.1, affine=False, track_running_stats=True)
      )
    )
    (primitive-6): DilConv(
      (op): Sequential(
        (0): ReLU()
        (1): Conv2d(32, 32, kernel_size=(3, 3), stride=(1, 1), padding=(2, 2), dilation=(2, 2), groups=32, bias=False)
        (2): Conv2d(32, 32, kernel_size=(1, 1), stride=(1, 1), bias=False)
        (3): BatchNorm2d(32, eps=1e-05, momentum=0.1, affine=False, track_running_stats=True)
      )
    )
    (primitive-7): DilConv(
      (op): Sequential(
        (0): ReLU()
        (1): Conv2d(32, 32, kernel_size=(5, 5), stride=(1, 1), padding=(4, 4), dilation=(2, 2), groups=32, bias=False)
        (2): Conv2d(32, 32, kernel_size=(1, 1), stride=(1, 1), bias=False)
        (3): BatchNorm2d(32, eps=1e-05, momentum=0.1, affine=False, track_running_stats=True)
      )
    )
  )
  (reduction_cell-edge(4,7)): Identity()
  (reduction_cell-edge(5,6)): MixedOp(
    (primitive-0): Identity()
    (primitive-1): Zero (stride=1)
    (primitive-2): MaxPool(
      (maxpool): Sequential(
        (0): MaxPool2d(kernel_size=3, stride=1, padding=1, dilation=1, ceil_mode=False)
        (1): BatchNorm2d(32, eps=1e-05, momentum=0.1, affine=False, track_running_stats=True)
      )
    )
    (primitive-3): AvgPool(
      (avgpool): Sequential(
        (0): AvgPool2d(kernel_size=3, stride=1, padding=1)
        (1): BatchNorm2d(32, eps=1e-05, momentum=0.1, affine=False, track_running_stats=True)
      )
    )
    (primitive-4): SepConv(
      (op): Sequential(
        (0): ReLU()
        (1): Conv2d(32, 32, kernel_size=(3, 3), stride=(1, 1), padding=(1, 1), groups=32, bias=False)
        (2): Conv2d(32, 32, kernel_size=(1, 1), stride=(1, 1), bias=False)
        (3): BatchNorm2d(32, eps=1e-05, momentum=0.1, affine=False, track_running_stats=True)
        (4): ReLU()
        (5): Conv2d(32, 32, kernel_size=(3, 3), stride=(1, 1), padding=(1, 1), groups=32, bias=False)
        (6): Conv2d(32, 32, kernel_size=(1, 1), stride=(1, 1), bias=False)
        (7): BatchNorm2d(32, eps=1e-05, momentum=0.1, affine=False, track_running_stats=True)
      )
    )
    (primitive-5): SepConv(
      (op): Sequential(
        (0): ReLU()
        (1): Conv2d(32, 32, kernel_size=(5, 5), stride=(1, 1), padding=(2, 2), groups=32, bias=False)
        (2): Conv2d(32, 32, kernel_size=(1, 1), stride=(1, 1), bias=False)
        (3): BatchNorm2d(32, eps=1e-05, momentum=0.1, affine=False, track_running_stats=True)
        (4): ReLU()
        (5): Conv2d(32, 32, kernel_size=(5, 5), stride=(1, 1), padding=(2, 2), groups=32, bias=False)
        (6): Conv2d(32, 32, kernel_size=(1, 1), stride=(1, 1), bias=False)
        (7): BatchNorm2d(32, eps=1e-05, momentum=0.1, affine=False, track_running_stats=True)
      )
    )
    (primitive-6): DilConv(
      (op): Sequential(
        (0): ReLU()
        (1): Conv2d(32, 32, kernel_size=(3, 3), stride=(1, 1), padding=(2, 2), dilation=(2, 2), groups=32, bias=False)
        (2): Conv2d(32, 32, kernel_size=(1, 1), stride=(1, 1), bias=False)
        (3): BatchNorm2d(32, eps=1e-05, momentum=0.1, affine=False, track_running_stats=True)
      )
    )
    (primitive-7): DilConv(
      (op): Sequential(
        (0): ReLU()
        (1): Conv2d(32, 32, kernel_size=(5, 5), stride=(1, 1), padding=(4, 4), dilation=(2, 2), groups=32, bias=False)
        (2): Conv2d(32, 32, kernel_size=(1, 1), stride=(1, 1), bias=False)
        (3): BatchNorm2d(32, eps=1e-05, momentum=0.1, affine=False, track_running_stats=True)
      )
    )
  )
  (reduction_cell-edge(5,7)): Identity()
  (reduction_cell-edge(6,7)): Identity()
)
==========
Graph makrograph:
 DartsSearchSpace(
  (makrograph-edge(1,2)): Stem(
    (seq): Sequential(
      (0): Conv2d(3, 48, kernel_size=(3, 3), stride=(1, 1), padding=(1, 1), bias=False)
      (1): BatchNorm2d(48, eps=1e-05, momentum=0.1, affine=True, track_running_stats=True)
    )
  )
  (makrograph-edge(2,3)): ReLUConvBN(
    (op): Sequential(
      (0): ReLU()
      (1): Conv2d(48, 16, kernel_size=(1, 1), stride=(1, 1), bias=False)
      (2): BatchNorm2d(16, eps=1e-05, momentum=0.1, affine=False, track_running_stats=True)
    )
  )
  (makrograph-edge(2,4)): ReLUConvBN(
    (op): Sequential(
      (0): ReLU()
      (1): Conv2d(48, 16, kernel_size=(1, 1), stride=(1, 1), bias=False)
      (2): BatchNorm2d(16, eps=1e-05, momentum=0.1, affine=False, track_running_stats=True)
    )
  )
  (makrograph-edge(2,5)): ReLUConvBN(
    (op): Sequential(
      (0): ReLU()
      (1): Conv2d(48, 16, kernel_size=(1, 1), stride=(1, 1), bias=False)
      (2): BatchNorm2d(16, eps=1e-05, momentum=0.1, affine=False, track_running_stats=True)
    )
  )
  (makrograph-edge(3,4)): Identity()
  (makrograph-subgraph_at(4)): Graph normal_cell-0.8474337, scope n_stage_1, 7 nodes
  (makrograph-edge(4,5)): ReLUConvBN(
    (op): Sequential(
      (0): ReLU()
      (1): Conv2d(64, 16, kernel_size=(1, 1), stride=(1, 1), bias=False)
      (2): BatchNorm2d(16, eps=1e-05, momentum=0.1, affine=False, track_running_stats=True)
    )
  )
  (makrograph-edge(4,6)): ReLUConvBN(
    (op): Sequential(
      (0): ReLU()
      (1): Conv2d(64, 32, kernel_size=(1, 1), stride=(1, 1), bias=False)
      (2): BatchNorm2d(32, eps=1e-05, momentum=0.1, affine=False, track_running_stats=True)
    )
  )
  (makrograph-subgraph_at(5)): Graph normal_cell-0.7637746, scope n_stage_1, 7 nodes
  (makrograph-edge(5,6)): ReLUConvBN(
    (op): Sequential(
      (0): ReLU()
      (1): Conv2d(64, 32, kernel_size=(1, 1), stride=(1, 1), bias=False)
      (2): BatchNorm2d(32, eps=1e-05, momentum=0.1, affine=False, track_running_stats=True)
    )
  )
  (makrograph-edge(5,7)): FactorizedReduce(
    (relu): ReLU()
    (conv_1): Conv2d(64, 16, kernel_size=(1, 1), stride=(2, 2), bias=False)
    (conv_2): Conv2d(64, 16, kernel_size=(1, 1), stride=(2, 2), bias=False)
    (bn): BatchNorm2d(32, eps=1e-05, momentum=0.1, affine=False, track_running_stats=True)
  )
  (makrograph-subgraph_at(6)): Graph reduction_cell-0.8474337, scope r_stage_1, 7 nodes
  (makrograph-edge(6,7)): ReLUConvBN(
    (op): Sequential(
      (0): ReLU()
      (1): Conv2d(128, 32, kernel_size=(1, 1), stride=(1, 1), bias=False)
      (2): BatchNorm2d(32, eps=1e-05, momentum=0.1, affine=False, track_running_stats=True)
    )
  )
  (makrograph-edge(6,8)): ReLUConvBN(
    (op): Sequential(
      (0): ReLU()
      (1): Conv2d(128, 32, kernel_size=(1, 1), stride=(1, 1), bias=False)
      (2): BatchNorm2d(32, eps=1e-05, momentum=0.1, affine=False, track_running_stats=True)
    )
  )
  (makrograph-subgraph_at(7)): Graph normal_cell-0.2550690, scope n_stage_2, 7 nodes
  (makrograph-edge(7,8)): ReLUConvBN(
    (op): Sequential(
      (0): ReLU()
      (1): Conv2d(128, 32, kernel_size=(1, 1), stride=(1, 1), bias=False)
      (2): BatchNorm2d(32, eps=1e-05, momentum=0.1, affine=False, track_running_stats=True)
    )
  )
  (makrograph-edge(7,9)): ReLUConvBN(
    (op): Sequential(
      (0): ReLU()
      (1): Conv2d(128, 64, kernel_size=(1, 1), stride=(1, 1), bias=False)
      (2): BatchNorm2d(64, eps=1e-05, momentum=0.1, affine=False, track_running_stats=True)
    )
  )
  (makrograph-subgraph_at(8)): Graph normal_cell-0.4954351, scope n_stage_2, 7 nodes
  (makrograph-edge(8,9)): ReLUConvBN(
    (op): Sequential(
      (0): ReLU()
      (1): Conv2d(128, 64, kernel_size=(1, 1), stride=(1, 1), bias=False)
      (2): BatchNorm2d(64, eps=1e-05, momentum=0.1, affine=False, track_running_stats=True)
    )
  )
  (makrograph-edge(8,10)): FactorizedReduce(
    (relu): ReLU()
    (conv_1): Conv2d(128, 32, kernel_size=(1, 1), stride=(2, 2), bias=False)
    (conv_2): Conv2d(128, 32, kernel_size=(1, 1), stride=(2, 2), bias=False)
    (bn): BatchNorm2d(64, eps=1e-05, momentum=0.1, affine=False, track_running_stats=True)
  )
  (makrograph-subgraph_at(9)): Graph reduction_cell-0.4494911, scope r_stage_2, 7 nodes
  (makrograph-edge(9,10)): ReLUConvBN(
    (op): Sequential(
      (0): ReLU()
      (1): Conv2d(256, 64, kernel_size=(1, 1), stride=(1, 1), bias=False)
      (2): BatchNorm2d(64, eps=1e-05, momentum=0.1, affine=False, track_running_stats=True)
    )
  )
  (makrograph-edge(9,11)): ReLUConvBN(
    (op): Sequential(
      (0): ReLU()
      (1): Conv2d(256, 64, kernel_size=(1, 1), stride=(1, 1), bias=False)
      (2): BatchNorm2d(64, eps=1e-05, momentum=0.1, affine=False, track_running_stats=True)
    )
  )
  (makrograph-subgraph_at(10)): Graph normal_cell-0.6515930, scope n_stage_3, 7 nodes
  (makrograph-edge(10,11)): ReLUConvBN(
    (op): Sequential(
      (0): ReLU()
      (1): Conv2d(256, 64, kernel_size=(1, 1), stride=(1, 1), bias=False)
      (2): BatchNorm2d(64, eps=1e-05, momentum=0.1, affine=False, track_running_stats=True)
    )
  )
  (makrograph-subgraph_at(11)): Graph normal_cell-0.7887234, scope n_stage_3, 7 nodes
  (makrograph-edge(11,12)): Sequential(
    (op): Sequential(
      (0): AdaptiveAvgPool2d(output_size=1)
      (1): Flatten(start_dim=1, end_dim=-1)
      (2): Linear(in_features=256, out_features=10, bias=True)
    )
  )
)
==========

[32m[08/06 18:06:30 nl.defaults.trainer]: [0mparam size = 1.930618MB
[32m[08/06 18:06:30 nl.defaults.trainer]: [0mStart evaluation
[32m[08/06 18:06:30 nl.optimizers.oneshot.darts.optimizer]: [0mArch weights before discretization: [Parameter containing:
tensor([-7.3109e-05, -5.5183e-04,  5.2830e-04,  5.3664e-05,  1.0000e+00,
…
